<?xml version="1.0" ?>
<net name="torch-jit-export" version="11">
	<layers>
		<layer id="0" name="input.1" type="Parameter" version="opset1">
			<data shape="1,3,512,512" element_type="f32"/>
			<rt_info>
				<attribute name="fused_names" version="0" value="input.1"/>
			</rt_info>
			<output>
				<port id="0" precision="FP32" names="input.1">
					<dim>1</dim>
					<dim>3</dim>
					<dim>512</dim>
					<dim>512</dim>
					<rt_info>
						<attribute name="layout" version="0" layout="[N,C,H,W]"/>
					</rt_info>
				</port>
			</output>
		</layer>
		<layer id="1" name="Constant_17878" type="Const" version="opset1">
			<data element_type="f32" shape="1, 1, 1, 1" offset="0" size="4"/>
			<output>
				<port id="0" precision="FP32">
					<dim>1</dim>
					<dim>1</dim>
					<dim>1</dim>
					<dim>1</dim>
				</port>
			</output>
		</layer>
		<layer id="2" name="Divide_3469" type="Multiply" version="opset1">
			<data auto_broadcast="numpy"/>
			<rt_info>
				<attribute name="fused_names" version="0" value="Constant_3468, Divide_3469"/>
				<attribute name="preprocessing" version="0"/>
			</rt_info>
			<input>
				<port id="0" precision="FP32">
					<dim>1</dim>
					<dim>3</dim>
					<dim>512</dim>
					<dim>512</dim>
				</port>
				<port id="1" precision="FP32">
					<dim>1</dim>
					<dim>1</dim>
					<dim>1</dim>
					<dim>1</dim>
				</port>
			</input>
			<output>
				<port id="2" precision="FP32">
					<dim>1</dim>
					<dim>3</dim>
					<dim>512</dim>
					<dim>512</dim>
				</port>
			</output>
		</layer>
		<layer id="3" name="Constant_8774" type="Const" version="opset1">
			<data element_type="f32" shape="1, 3, 1, 1" offset="4" size="12"/>
			<rt_info>
				<attribute name="fused_names" version="0" value="1, 2, 3, 391, 4"/>
			</rt_info>
			<output>
				<port id="0" precision="FP32">
					<dim>1</dim>
					<dim>3</dim>
					<dim>1</dim>
					<dim>1</dim>
				</port>
			</output>
		</layer>
		<layer id="4" name="Multiply_16464" type="Multiply" version="opset1">
			<data auto_broadcast="numpy"/>
			<rt_info>
				<attribute name="fused_names" version="0" value="1, 2, 3, 391, 4"/>
			</rt_info>
			<input>
				<port id="0" precision="FP32">
					<dim>1</dim>
					<dim>3</dim>
					<dim>512</dim>
					<dim>512</dim>
				</port>
				<port id="1" precision="FP32">
					<dim>1</dim>
					<dim>3</dim>
					<dim>1</dim>
					<dim>1</dim>
				</port>
			</input>
			<output>
				<port id="2" precision="FP32">
					<dim>1</dim>
					<dim>3</dim>
					<dim>512</dim>
					<dim>512</dim>
				</port>
			</output>
		</layer>
		<layer id="5" name="Constant_16469" type="Const" version="opset1">
			<data element_type="f32" shape="1, 3, 1, 1" offset="16" size="12"/>
			<output>
				<port id="0" precision="FP32">
					<dim>1</dim>
					<dim>3</dim>
					<dim>1</dim>
					<dim>1</dim>
				</port>
			</output>
		</layer>
		<layer id="6" name="391" type="Add" version="opset1">
			<data auto_broadcast="numpy"/>
			<rt_info>
				<attribute name="fused_names" version="0" value="1, 2, 3, 391, 4"/>
			</rt_info>
			<input>
				<port id="0" precision="FP32">
					<dim>1</dim>
					<dim>3</dim>
					<dim>512</dim>
					<dim>512</dim>
				</port>
				<port id="1" precision="FP32">
					<dim>1</dim>
					<dim>3</dim>
					<dim>1</dim>
					<dim>1</dim>
				</port>
			</input>
			<output>
				<port id="2" precision="FP32" names="391">
					<dim>1</dim>
					<dim>3</dim>
					<dim>512</dim>
					<dim>512</dim>
				</port>
			</output>
		</layer>
		<layer id="7" name="Multiply_16923" type="Const" version="opset1">
			<data element_type="f32" shape="32, 3, 3, 3" offset="28" size="3456"/>
			<output>
				<port id="0" precision="FP32">
					<dim>32</dim>
					<dim>3</dim>
					<dim>3</dim>
					<dim>3</dim>
				</port>
			</output>
		</layer>
		<layer id="8" name="Multiply_16471" type="Convolution" version="opset1">
			<data strides="2, 2" dilations="1, 1" pads_begin="1, 1" pads_end="1, 1" auto_pad="explicit"/>
			<rt_info>
				<attribute name="fused_names" version="0" value="10, 392, 393, 7, 8, 9"/>
			</rt_info>
			<input>
				<port id="0" precision="FP32">
					<dim>1</dim>
					<dim>3</dim>
					<dim>512</dim>
					<dim>512</dim>
				</port>
				<port id="1" precision="FP32">
					<dim>32</dim>
					<dim>3</dim>
					<dim>3</dim>
					<dim>3</dim>
				</port>
			</input>
			<output>
				<port id="2" precision="FP32">
					<dim>1</dim>
					<dim>32</dim>
					<dim>256</dim>
					<dim>256</dim>
				</port>
			</output>
		</layer>
		<layer id="9" name="Constant_16476" type="Const" version="opset1">
			<data element_type="f32" shape="1, 32, 1, 1" offset="3484" size="128"/>
			<output>
				<port id="0" precision="FP32">
					<dim>1</dim>
					<dim>32</dim>
					<dim>1</dim>
					<dim>1</dim>
				</port>
			</output>
		</layer>
		<layer id="10" name="393" type="Add" version="opset1">
			<data auto_broadcast="numpy"/>
			<rt_info>
				<attribute name="fused_names" version="0" value="10, 393, 7, 8, 9"/>
			</rt_info>
			<input>
				<port id="0" precision="FP32">
					<dim>1</dim>
					<dim>32</dim>
					<dim>256</dim>
					<dim>256</dim>
				</port>
				<port id="1" precision="FP32">
					<dim>1</dim>
					<dim>32</dim>
					<dim>1</dim>
					<dim>1</dim>
				</port>
			</input>
			<output>
				<port id="2" precision="FP32" names="393">
					<dim>1</dim>
					<dim>32</dim>
					<dim>256</dim>
					<dim>256</dim>
				</port>
			</output>
		</layer>
		<layer id="11" name="394" type="ReLU" version="opset1">
			<rt_info>
				<attribute name="fused_names" version="0" value="394"/>
			</rt_info>
			<input>
				<port id="0" precision="FP32">
					<dim>1</dim>
					<dim>32</dim>
					<dim>256</dim>
					<dim>256</dim>
				</port>
			</input>
			<output>
				<port id="1" precision="FP32" names="394">
					<dim>1</dim>
					<dim>32</dim>
					<dim>256</dim>
					<dim>256</dim>
				</port>
			</output>
		</layer>
		<layer id="12" name="Multiply_16932" type="Const" version="opset1">
			<data element_type="f32" shape="32, 1, 1, 3, 3" offset="3612" size="1152"/>
			<output>
				<port id="0" precision="FP32">
					<dim>32</dim>
					<dim>1</dim>
					<dim>1</dim>
					<dim>3</dim>
					<dim>3</dim>
				</port>
			</output>
		</layer>
		<layer id="13" name="Multiply_16478" type="GroupConvolution" version="opset1">
			<data strides="1, 1" pads_begin="1, 1" pads_end="1, 1" dilations="1, 1" auto_pad="explicit"/>
			<rt_info>
				<attribute name="fused_names" version="0" value="13, 14, 15, 16, 396"/>
			</rt_info>
			<input>
				<port id="0" precision="FP32">
					<dim>1</dim>
					<dim>32</dim>
					<dim>256</dim>
					<dim>256</dim>
				</port>
				<port id="1" precision="FP32">
					<dim>32</dim>
					<dim>1</dim>
					<dim>1</dim>
					<dim>3</dim>
					<dim>3</dim>
				</port>
			</input>
			<output>
				<port id="2" precision="FP32" names="395">
					<dim>1</dim>
					<dim>32</dim>
					<dim>256</dim>
					<dim>256</dim>
				</port>
			</output>
		</layer>
		<layer id="14" name="Constant_16483" type="Const" version="opset1">
			<data element_type="f32" shape="1, 32, 1, 1" offset="4764" size="128"/>
			<output>
				<port id="0" precision="FP32">
					<dim>1</dim>
					<dim>32</dim>
					<dim>1</dim>
					<dim>1</dim>
				</port>
			</output>
		</layer>
		<layer id="15" name="396" type="Add" version="opset1">
			<data auto_broadcast="numpy"/>
			<rt_info>
				<attribute name="fused_names" version="0" value="13, 14, 15, 16, 396"/>
			</rt_info>
			<input>
				<port id="0" precision="FP32">
					<dim>1</dim>
					<dim>32</dim>
					<dim>256</dim>
					<dim>256</dim>
				</port>
				<port id="1" precision="FP32">
					<dim>1</dim>
					<dim>32</dim>
					<dim>1</dim>
					<dim>1</dim>
				</port>
			</input>
			<output>
				<port id="2" precision="FP32" names="396">
					<dim>1</dim>
					<dim>32</dim>
					<dim>256</dim>
					<dim>256</dim>
				</port>
			</output>
		</layer>
		<layer id="16" name="397" type="ReLU" version="opset1">
			<rt_info>
				<attribute name="fused_names" version="0" value="397"/>
			</rt_info>
			<input>
				<port id="0" precision="FP32">
					<dim>1</dim>
					<dim>32</dim>
					<dim>256</dim>
					<dim>256</dim>
				</port>
			</input>
			<output>
				<port id="1" precision="FP32" names="397">
					<dim>1</dim>
					<dim>32</dim>
					<dim>256</dim>
					<dim>256</dim>
				</port>
			</output>
		</layer>
		<layer id="17" name="Multiply_16940" type="Const" version="opset1">
			<data element_type="f32" shape="16, 32, 1, 1" offset="4892" size="2048"/>
			<output>
				<port id="0" precision="FP32">
					<dim>16</dim>
					<dim>32</dim>
					<dim>1</dim>
					<dim>1</dim>
				</port>
			</output>
		</layer>
		<layer id="18" name="Multiply_16485" type="Convolution" version="opset1">
			<data strides="1, 1" dilations="1, 1" pads_begin="0, 0" pads_end="0, 0" auto_pad="explicit"/>
			<rt_info>
				<attribute name="fused_names" version="0" value="19, 20, 21, 22, 398, 399"/>
			</rt_info>
			<input>
				<port id="0" precision="FP32">
					<dim>1</dim>
					<dim>32</dim>
					<dim>256</dim>
					<dim>256</dim>
				</port>
				<port id="1" precision="FP32">
					<dim>16</dim>
					<dim>32</dim>
					<dim>1</dim>
					<dim>1</dim>
				</port>
			</input>
			<output>
				<port id="2" precision="FP32">
					<dim>1</dim>
					<dim>16</dim>
					<dim>256</dim>
					<dim>256</dim>
				</port>
			</output>
		</layer>
		<layer id="19" name="Constant_16490" type="Const" version="opset1">
			<data element_type="f32" shape="1, 16, 1, 1" offset="6940" size="64"/>
			<output>
				<port id="0" precision="FP32">
					<dim>1</dim>
					<dim>16</dim>
					<dim>1</dim>
					<dim>1</dim>
				</port>
			</output>
		</layer>
		<layer id="20" name="399" type="Add" version="opset1">
			<data auto_broadcast="numpy"/>
			<rt_info>
				<attribute name="fused_names" version="0" value="19, 20, 21, 22, 399"/>
			</rt_info>
			<input>
				<port id="0" precision="FP32">
					<dim>1</dim>
					<dim>16</dim>
					<dim>256</dim>
					<dim>256</dim>
				</port>
				<port id="1" precision="FP32">
					<dim>1</dim>
					<dim>16</dim>
					<dim>1</dim>
					<dim>1</dim>
				</port>
			</input>
			<output>
				<port id="2" precision="FP32" names="399">
					<dim>1</dim>
					<dim>16</dim>
					<dim>256</dim>
					<dim>256</dim>
				</port>
			</output>
		</layer>
		<layer id="21" name="Multiply_16949" type="Const" version="opset1">
			<data element_type="f32" shape="96, 16, 1, 1" offset="7004" size="6144"/>
			<output>
				<port id="0" precision="FP32">
					<dim>96</dim>
					<dim>16</dim>
					<dim>1</dim>
					<dim>1</dim>
				</port>
			</output>
		</layer>
		<layer id="22" name="Multiply_16492" type="Convolution" version="opset1">
			<data strides="1, 1" dilations="1, 1" pads_begin="0, 0" pads_end="0, 0" auto_pad="explicit"/>
			<rt_info>
				<attribute name="fused_names" version="0" value="25, 26, 27, 28, 400, 401"/>
			</rt_info>
			<input>
				<port id="0" precision="FP32">
					<dim>1</dim>
					<dim>16</dim>
					<dim>256</dim>
					<dim>256</dim>
				</port>
				<port id="1" precision="FP32">
					<dim>96</dim>
					<dim>16</dim>
					<dim>1</dim>
					<dim>1</dim>
				</port>
			</input>
			<output>
				<port id="2" precision="FP32">
					<dim>1</dim>
					<dim>96</dim>
					<dim>256</dim>
					<dim>256</dim>
				</port>
			</output>
		</layer>
		<layer id="23" name="Constant_16497" type="Const" version="opset1">
			<data element_type="f32" shape="1, 96, 1, 1" offset="13148" size="384"/>
			<output>
				<port id="0" precision="FP32">
					<dim>1</dim>
					<dim>96</dim>
					<dim>1</dim>
					<dim>1</dim>
				</port>
			</output>
		</layer>
		<layer id="24" name="401" type="Add" version="opset1">
			<data auto_broadcast="numpy"/>
			<rt_info>
				<attribute name="fused_names" version="0" value="25, 26, 27, 28, 401"/>
			</rt_info>
			<input>
				<port id="0" precision="FP32">
					<dim>1</dim>
					<dim>96</dim>
					<dim>256</dim>
					<dim>256</dim>
				</port>
				<port id="1" precision="FP32">
					<dim>1</dim>
					<dim>96</dim>
					<dim>1</dim>
					<dim>1</dim>
				</port>
			</input>
			<output>
				<port id="2" precision="FP32" names="401">
					<dim>1</dim>
					<dim>96</dim>
					<dim>256</dim>
					<dim>256</dim>
				</port>
			</output>
		</layer>
		<layer id="25" name="402" type="ReLU" version="opset1">
			<rt_info>
				<attribute name="fused_names" version="0" value="402"/>
			</rt_info>
			<input>
				<port id="0" precision="FP32">
					<dim>1</dim>
					<dim>96</dim>
					<dim>256</dim>
					<dim>256</dim>
				</port>
			</input>
			<output>
				<port id="1" precision="FP32" names="402">
					<dim>1</dim>
					<dim>96</dim>
					<dim>256</dim>
					<dim>256</dim>
				</port>
			</output>
		</layer>
		<layer id="26" name="Multiply_16958" type="Const" version="opset1">
			<data element_type="f32" shape="96, 1, 1, 3, 3" offset="13532" size="3456"/>
			<output>
				<port id="0" precision="FP32">
					<dim>96</dim>
					<dim>1</dim>
					<dim>1</dim>
					<dim>3</dim>
					<dim>3</dim>
				</port>
			</output>
		</layer>
		<layer id="27" name="Multiply_16499" type="GroupConvolution" version="opset1">
			<data strides="2, 2" pads_begin="1, 1" pads_end="1, 1" dilations="1, 1" auto_pad="explicit"/>
			<rt_info>
				<attribute name="fused_names" version="0" value="31, 32, 33, 34, 404"/>
			</rt_info>
			<input>
				<port id="0" precision="FP32">
					<dim>1</dim>
					<dim>96</dim>
					<dim>256</dim>
					<dim>256</dim>
				</port>
				<port id="1" precision="FP32">
					<dim>96</dim>
					<dim>1</dim>
					<dim>1</dim>
					<dim>3</dim>
					<dim>3</dim>
				</port>
			</input>
			<output>
				<port id="2" precision="FP32" names="403">
					<dim>1</dim>
					<dim>96</dim>
					<dim>128</dim>
					<dim>128</dim>
				</port>
			</output>
		</layer>
		<layer id="28" name="Constant_16504" type="Const" version="opset1">
			<data element_type="f32" shape="1, 96, 1, 1" offset="16988" size="384"/>
			<output>
				<port id="0" precision="FP32">
					<dim>1</dim>
					<dim>96</dim>
					<dim>1</dim>
					<dim>1</dim>
				</port>
			</output>
		</layer>
		<layer id="29" name="404" type="Add" version="opset1">
			<data auto_broadcast="numpy"/>
			<rt_info>
				<attribute name="fused_names" version="0" value="31, 32, 33, 34, 404"/>
			</rt_info>
			<input>
				<port id="0" precision="FP32">
					<dim>1</dim>
					<dim>96</dim>
					<dim>128</dim>
					<dim>128</dim>
				</port>
				<port id="1" precision="FP32">
					<dim>1</dim>
					<dim>96</dim>
					<dim>1</dim>
					<dim>1</dim>
				</port>
			</input>
			<output>
				<port id="2" precision="FP32" names="404">
					<dim>1</dim>
					<dim>96</dim>
					<dim>128</dim>
					<dim>128</dim>
				</port>
			</output>
		</layer>
		<layer id="30" name="405" type="ReLU" version="opset1">
			<rt_info>
				<attribute name="fused_names" version="0" value="405"/>
			</rt_info>
			<input>
				<port id="0" precision="FP32">
					<dim>1</dim>
					<dim>96</dim>
					<dim>128</dim>
					<dim>128</dim>
				</port>
			</input>
			<output>
				<port id="1" precision="FP32" names="405">
					<dim>1</dim>
					<dim>96</dim>
					<dim>128</dim>
					<dim>128</dim>
				</port>
			</output>
		</layer>
		<layer id="31" name="Multiply_16966" type="Const" version="opset1">
			<data element_type="f32" shape="24, 96, 1, 1" offset="17372" size="9216"/>
			<output>
				<port id="0" precision="FP32">
					<dim>24</dim>
					<dim>96</dim>
					<dim>1</dim>
					<dim>1</dim>
				</port>
			</output>
		</layer>
		<layer id="32" name="Multiply_16506" type="Convolution" version="opset1">
			<data strides="1, 1" dilations="1, 1" pads_begin="0, 0" pads_end="0, 0" auto_pad="explicit"/>
			<rt_info>
				<attribute name="fused_names" version="0" value="37, 38, 39, 40, 406, 407"/>
			</rt_info>
			<input>
				<port id="0" precision="FP32">
					<dim>1</dim>
					<dim>96</dim>
					<dim>128</dim>
					<dim>128</dim>
				</port>
				<port id="1" precision="FP32">
					<dim>24</dim>
					<dim>96</dim>
					<dim>1</dim>
					<dim>1</dim>
				</port>
			</input>
			<output>
				<port id="2" precision="FP32">
					<dim>1</dim>
					<dim>24</dim>
					<dim>128</dim>
					<dim>128</dim>
				</port>
			</output>
		</layer>
		<layer id="33" name="Constant_16511" type="Const" version="opset1">
			<data element_type="f32" shape="1, 24, 1, 1" offset="26588" size="96"/>
			<output>
				<port id="0" precision="FP32">
					<dim>1</dim>
					<dim>24</dim>
					<dim>1</dim>
					<dim>1</dim>
				</port>
			</output>
		</layer>
		<layer id="34" name="407" type="Add" version="opset1">
			<data auto_broadcast="numpy"/>
			<rt_info>
				<attribute name="fused_names" version="0" value="37, 38, 39, 40, 407"/>
			</rt_info>
			<input>
				<port id="0" precision="FP32">
					<dim>1</dim>
					<dim>24</dim>
					<dim>128</dim>
					<dim>128</dim>
				</port>
				<port id="1" precision="FP32">
					<dim>1</dim>
					<dim>24</dim>
					<dim>1</dim>
					<dim>1</dim>
				</port>
			</input>
			<output>
				<port id="2" precision="FP32" names="407">
					<dim>1</dim>
					<dim>24</dim>
					<dim>128</dim>
					<dim>128</dim>
				</port>
			</output>
		</layer>
		<layer id="35" name="Multiply_16975" type="Const" version="opset1">
			<data element_type="f32" shape="144, 24, 1, 1" offset="26684" size="13824"/>
			<output>
				<port id="0" precision="FP32">
					<dim>144</dim>
					<dim>24</dim>
					<dim>1</dim>
					<dim>1</dim>
				</port>
			</output>
		</layer>
		<layer id="36" name="Multiply_16513" type="Convolution" version="opset1">
			<data strides="1, 1" dilations="1, 1" pads_begin="0, 0" pads_end="0, 0" auto_pad="explicit"/>
			<rt_info>
				<attribute name="fused_names" version="0" value="408, 409, 43, 44, 45, 46"/>
			</rt_info>
			<input>
				<port id="0" precision="FP32">
					<dim>1</dim>
					<dim>24</dim>
					<dim>128</dim>
					<dim>128</dim>
				</port>
				<port id="1" precision="FP32">
					<dim>144</dim>
					<dim>24</dim>
					<dim>1</dim>
					<dim>1</dim>
				</port>
			</input>
			<output>
				<port id="2" precision="FP32">
					<dim>1</dim>
					<dim>144</dim>
					<dim>128</dim>
					<dim>128</dim>
				</port>
			</output>
		</layer>
		<layer id="37" name="Constant_16518" type="Const" version="opset1">
			<data element_type="f32" shape="1, 144, 1, 1" offset="40508" size="576"/>
			<output>
				<port id="0" precision="FP32">
					<dim>1</dim>
					<dim>144</dim>
					<dim>1</dim>
					<dim>1</dim>
				</port>
			</output>
		</layer>
		<layer id="38" name="409" type="Add" version="opset1">
			<data auto_broadcast="numpy"/>
			<rt_info>
				<attribute name="fused_names" version="0" value="409, 43, 44, 45, 46"/>
			</rt_info>
			<input>
				<port id="0" precision="FP32">
					<dim>1</dim>
					<dim>144</dim>
					<dim>128</dim>
					<dim>128</dim>
				</port>
				<port id="1" precision="FP32">
					<dim>1</dim>
					<dim>144</dim>
					<dim>1</dim>
					<dim>1</dim>
				</port>
			</input>
			<output>
				<port id="2" precision="FP32" names="409">
					<dim>1</dim>
					<dim>144</dim>
					<dim>128</dim>
					<dim>128</dim>
				</port>
			</output>
		</layer>
		<layer id="39" name="410" type="ReLU" version="opset1">
			<rt_info>
				<attribute name="fused_names" version="0" value="410"/>
			</rt_info>
			<input>
				<port id="0" precision="FP32">
					<dim>1</dim>
					<dim>144</dim>
					<dim>128</dim>
					<dim>128</dim>
				</port>
			</input>
			<output>
				<port id="1" precision="FP32" names="410">
					<dim>1</dim>
					<dim>144</dim>
					<dim>128</dim>
					<dim>128</dim>
				</port>
			</output>
		</layer>
		<layer id="40" name="Multiply_16984" type="Const" version="opset1">
			<data element_type="f32" shape="144, 1, 1, 3, 3" offset="41084" size="5184"/>
			<output>
				<port id="0" precision="FP32">
					<dim>144</dim>
					<dim>1</dim>
					<dim>1</dim>
					<dim>3</dim>
					<dim>3</dim>
				</port>
			</output>
		</layer>
		<layer id="41" name="Multiply_16520" type="GroupConvolution" version="opset1">
			<data strides="1, 1" pads_begin="1, 1" pads_end="1, 1" dilations="1, 1" auto_pad="explicit"/>
			<rt_info>
				<attribute name="fused_names" version="0" value="412, 49, 50, 51, 52"/>
			</rt_info>
			<input>
				<port id="0" precision="FP32">
					<dim>1</dim>
					<dim>144</dim>
					<dim>128</dim>
					<dim>128</dim>
				</port>
				<port id="1" precision="FP32">
					<dim>144</dim>
					<dim>1</dim>
					<dim>1</dim>
					<dim>3</dim>
					<dim>3</dim>
				</port>
			</input>
			<output>
				<port id="2" precision="FP32" names="411">
					<dim>1</dim>
					<dim>144</dim>
					<dim>128</dim>
					<dim>128</dim>
				</port>
			</output>
		</layer>
		<layer id="42" name="Constant_16525" type="Const" version="opset1">
			<data element_type="f32" shape="1, 144, 1, 1" offset="46268" size="576"/>
			<output>
				<port id="0" precision="FP32">
					<dim>1</dim>
					<dim>144</dim>
					<dim>1</dim>
					<dim>1</dim>
				</port>
			</output>
		</layer>
		<layer id="43" name="412" type="Add" version="opset1">
			<data auto_broadcast="numpy"/>
			<rt_info>
				<attribute name="fused_names" version="0" value="412, 49, 50, 51, 52"/>
			</rt_info>
			<input>
				<port id="0" precision="FP32">
					<dim>1</dim>
					<dim>144</dim>
					<dim>128</dim>
					<dim>128</dim>
				</port>
				<port id="1" precision="FP32">
					<dim>1</dim>
					<dim>144</dim>
					<dim>1</dim>
					<dim>1</dim>
				</port>
			</input>
			<output>
				<port id="2" precision="FP32" names="412">
					<dim>1</dim>
					<dim>144</dim>
					<dim>128</dim>
					<dim>128</dim>
				</port>
			</output>
		</layer>
		<layer id="44" name="413" type="ReLU" version="opset1">
			<rt_info>
				<attribute name="fused_names" version="0" value="413"/>
			</rt_info>
			<input>
				<port id="0" precision="FP32">
					<dim>1</dim>
					<dim>144</dim>
					<dim>128</dim>
					<dim>128</dim>
				</port>
			</input>
			<output>
				<port id="1" precision="FP32" names="413">
					<dim>1</dim>
					<dim>144</dim>
					<dim>128</dim>
					<dim>128</dim>
				</port>
			</output>
		</layer>
		<layer id="45" name="Multiply_16992" type="Const" version="opset1">
			<data element_type="f32" shape="24, 144, 1, 1" offset="46844" size="13824"/>
			<output>
				<port id="0" precision="FP32">
					<dim>24</dim>
					<dim>144</dim>
					<dim>1</dim>
					<dim>1</dim>
				</port>
			</output>
		</layer>
		<layer id="46" name="Multiply_16527" type="Convolution" version="opset1">
			<data strides="1, 1" dilations="1, 1" pads_begin="0, 0" pads_end="0, 0" auto_pad="explicit"/>
			<rt_info>
				<attribute name="fused_names" version="0" value="414, 415, 55, 56, 57, 58"/>
			</rt_info>
			<input>
				<port id="0" precision="FP32">
					<dim>1</dim>
					<dim>144</dim>
					<dim>128</dim>
					<dim>128</dim>
				</port>
				<port id="1" precision="FP32">
					<dim>24</dim>
					<dim>144</dim>
					<dim>1</dim>
					<dim>1</dim>
				</port>
			</input>
			<output>
				<port id="2" precision="FP32">
					<dim>1</dim>
					<dim>24</dim>
					<dim>128</dim>
					<dim>128</dim>
				</port>
			</output>
		</layer>
		<layer id="47" name="Constant_16532" type="Const" version="opset1">
			<data element_type="f32" shape="1, 24, 1, 1" offset="60668" size="96"/>
			<output>
				<port id="0" precision="FP32">
					<dim>1</dim>
					<dim>24</dim>
					<dim>1</dim>
					<dim>1</dim>
				</port>
			</output>
		</layer>
		<layer id="48" name="415" type="Add" version="opset1">
			<data auto_broadcast="numpy"/>
			<rt_info>
				<attribute name="fused_names" version="0" value="415, 55, 56, 57, 58"/>
			</rt_info>
			<input>
				<port id="0" precision="FP32">
					<dim>1</dim>
					<dim>24</dim>
					<dim>128</dim>
					<dim>128</dim>
				</port>
				<port id="1" precision="FP32">
					<dim>1</dim>
					<dim>24</dim>
					<dim>1</dim>
					<dim>1</dim>
				</port>
			</input>
			<output>
				<port id="2" precision="FP32" names="415">
					<dim>1</dim>
					<dim>24</dim>
					<dim>128</dim>
					<dim>128</dim>
				</port>
			</output>
		</layer>
		<layer id="49" name="416" type="Add" version="opset1">
			<data auto_broadcast="numpy"/>
			<rt_info>
				<attribute name="fused_names" version="0" value="416"/>
			</rt_info>
			<input>
				<port id="0" precision="FP32">
					<dim>1</dim>
					<dim>24</dim>
					<dim>128</dim>
					<dim>128</dim>
				</port>
				<port id="1" precision="FP32">
					<dim>1</dim>
					<dim>24</dim>
					<dim>128</dim>
					<dim>128</dim>
				</port>
			</input>
			<output>
				<port id="2" precision="FP32" names="416">
					<dim>1</dim>
					<dim>24</dim>
					<dim>128</dim>
					<dim>128</dim>
				</port>
			</output>
		</layer>
		<layer id="50" name="Multiply_17001" type="Const" version="opset1">
			<data element_type="f32" shape="144, 24, 1, 1" offset="60764" size="13824"/>
			<output>
				<port id="0" precision="FP32">
					<dim>144</dim>
					<dim>24</dim>
					<dim>1</dim>
					<dim>1</dim>
				</port>
			</output>
		</layer>
		<layer id="51" name="Multiply_16534" type="Convolution" version="opset1">
			<data strides="1, 1" dilations="1, 1" pads_begin="0, 0" pads_end="0, 0" auto_pad="explicit"/>
			<rt_info>
				<attribute name="fused_names" version="0" value="417, 418, 61, 62, 63, 64"/>
			</rt_info>
			<input>
				<port id="0" precision="FP32">
					<dim>1</dim>
					<dim>24</dim>
					<dim>128</dim>
					<dim>128</dim>
				</port>
				<port id="1" precision="FP32">
					<dim>144</dim>
					<dim>24</dim>
					<dim>1</dim>
					<dim>1</dim>
				</port>
			</input>
			<output>
				<port id="2" precision="FP32">
					<dim>1</dim>
					<dim>144</dim>
					<dim>128</dim>
					<dim>128</dim>
				</port>
			</output>
		</layer>
		<layer id="52" name="Constant_16539" type="Const" version="opset1">
			<data element_type="f32" shape="1, 144, 1, 1" offset="74588" size="576"/>
			<output>
				<port id="0" precision="FP32">
					<dim>1</dim>
					<dim>144</dim>
					<dim>1</dim>
					<dim>1</dim>
				</port>
			</output>
		</layer>
		<layer id="53" name="418" type="Add" version="opset1">
			<data auto_broadcast="numpy"/>
			<rt_info>
				<attribute name="fused_names" version="0" value="418, 61, 62, 63, 64"/>
			</rt_info>
			<input>
				<port id="0" precision="FP32">
					<dim>1</dim>
					<dim>144</dim>
					<dim>128</dim>
					<dim>128</dim>
				</port>
				<port id="1" precision="FP32">
					<dim>1</dim>
					<dim>144</dim>
					<dim>1</dim>
					<dim>1</dim>
				</port>
			</input>
			<output>
				<port id="2" precision="FP32" names="418">
					<dim>1</dim>
					<dim>144</dim>
					<dim>128</dim>
					<dim>128</dim>
				</port>
			</output>
		</layer>
		<layer id="54" name="419" type="ReLU" version="opset1">
			<rt_info>
				<attribute name="fused_names" version="0" value="419"/>
			</rt_info>
			<input>
				<port id="0" precision="FP32">
					<dim>1</dim>
					<dim>144</dim>
					<dim>128</dim>
					<dim>128</dim>
				</port>
			</input>
			<output>
				<port id="1" precision="FP32" names="419">
					<dim>1</dim>
					<dim>144</dim>
					<dim>128</dim>
					<dim>128</dim>
				</port>
			</output>
		</layer>
		<layer id="55" name="Multiply_17010" type="Const" version="opset1">
			<data element_type="f32" shape="144, 1, 1, 3, 3" offset="75164" size="5184"/>
			<output>
				<port id="0" precision="FP32">
					<dim>144</dim>
					<dim>1</dim>
					<dim>1</dim>
					<dim>3</dim>
					<dim>3</dim>
				</port>
			</output>
		</layer>
		<layer id="56" name="Multiply_16541" type="GroupConvolution" version="opset1">
			<data strides="2, 2" pads_begin="1, 1" pads_end="1, 1" dilations="1, 1" auto_pad="explicit"/>
			<rt_info>
				<attribute name="fused_names" version="0" value="421, 67, 68, 69, 70"/>
			</rt_info>
			<input>
				<port id="0" precision="FP32">
					<dim>1</dim>
					<dim>144</dim>
					<dim>128</dim>
					<dim>128</dim>
				</port>
				<port id="1" precision="FP32">
					<dim>144</dim>
					<dim>1</dim>
					<dim>1</dim>
					<dim>3</dim>
					<dim>3</dim>
				</port>
			</input>
			<output>
				<port id="2" precision="FP32" names="420">
					<dim>1</dim>
					<dim>144</dim>
					<dim>64</dim>
					<dim>64</dim>
				</port>
			</output>
		</layer>
		<layer id="57" name="Constant_16546" type="Const" version="opset1">
			<data element_type="f32" shape="1, 144, 1, 1" offset="80348" size="576"/>
			<output>
				<port id="0" precision="FP32">
					<dim>1</dim>
					<dim>144</dim>
					<dim>1</dim>
					<dim>1</dim>
				</port>
			</output>
		</layer>
		<layer id="58" name="421" type="Add" version="opset1">
			<data auto_broadcast="numpy"/>
			<rt_info>
				<attribute name="fused_names" version="0" value="421, 67, 68, 69, 70"/>
			</rt_info>
			<input>
				<port id="0" precision="FP32">
					<dim>1</dim>
					<dim>144</dim>
					<dim>64</dim>
					<dim>64</dim>
				</port>
				<port id="1" precision="FP32">
					<dim>1</dim>
					<dim>144</dim>
					<dim>1</dim>
					<dim>1</dim>
				</port>
			</input>
			<output>
				<port id="2" precision="FP32" names="421">
					<dim>1</dim>
					<dim>144</dim>
					<dim>64</dim>
					<dim>64</dim>
				</port>
			</output>
		</layer>
		<layer id="59" name="422" type="ReLU" version="opset1">
			<rt_info>
				<attribute name="fused_names" version="0" value="422"/>
			</rt_info>
			<input>
				<port id="0" precision="FP32">
					<dim>1</dim>
					<dim>144</dim>
					<dim>64</dim>
					<dim>64</dim>
				</port>
			</input>
			<output>
				<port id="1" precision="FP32" names="422">
					<dim>1</dim>
					<dim>144</dim>
					<dim>64</dim>
					<dim>64</dim>
				</port>
			</output>
		</layer>
		<layer id="60" name="Multiply_17018" type="Const" version="opset1">
			<data element_type="f32" shape="32, 144, 1, 1" offset="80924" size="18432"/>
			<output>
				<port id="0" precision="FP32">
					<dim>32</dim>
					<dim>144</dim>
					<dim>1</dim>
					<dim>1</dim>
				</port>
			</output>
		</layer>
		<layer id="61" name="Multiply_16548" type="Convolution" version="opset1">
			<data strides="1, 1" dilations="1, 1" pads_begin="0, 0" pads_end="0, 0" auto_pad="explicit"/>
			<rt_info>
				<attribute name="fused_names" version="0" value="423, 424, 73, 74, 75, 76"/>
			</rt_info>
			<input>
				<port id="0" precision="FP32">
					<dim>1</dim>
					<dim>144</dim>
					<dim>64</dim>
					<dim>64</dim>
				</port>
				<port id="1" precision="FP32">
					<dim>32</dim>
					<dim>144</dim>
					<dim>1</dim>
					<dim>1</dim>
				</port>
			</input>
			<output>
				<port id="2" precision="FP32">
					<dim>1</dim>
					<dim>32</dim>
					<dim>64</dim>
					<dim>64</dim>
				</port>
			</output>
		</layer>
		<layer id="62" name="Constant_16553" type="Const" version="opset1">
			<data element_type="f32" shape="1, 32, 1, 1" offset="99356" size="128"/>
			<output>
				<port id="0" precision="FP32">
					<dim>1</dim>
					<dim>32</dim>
					<dim>1</dim>
					<dim>1</dim>
				</port>
			</output>
		</layer>
		<layer id="63" name="424" type="Add" version="opset1">
			<data auto_broadcast="numpy"/>
			<rt_info>
				<attribute name="fused_names" version="0" value="424, 73, 74, 75, 76"/>
			</rt_info>
			<input>
				<port id="0" precision="FP32">
					<dim>1</dim>
					<dim>32</dim>
					<dim>64</dim>
					<dim>64</dim>
				</port>
				<port id="1" precision="FP32">
					<dim>1</dim>
					<dim>32</dim>
					<dim>1</dim>
					<dim>1</dim>
				</port>
			</input>
			<output>
				<port id="2" precision="FP32" names="424">
					<dim>1</dim>
					<dim>32</dim>
					<dim>64</dim>
					<dim>64</dim>
				</port>
			</output>
		</layer>
		<layer id="64" name="Multiply_17027" type="Const" version="opset1">
			<data element_type="f32" shape="192, 32, 1, 1" offset="99484" size="24576"/>
			<output>
				<port id="0" precision="FP32">
					<dim>192</dim>
					<dim>32</dim>
					<dim>1</dim>
					<dim>1</dim>
				</port>
			</output>
		</layer>
		<layer id="65" name="Multiply_16555" type="Convolution" version="opset1">
			<data strides="1, 1" dilations="1, 1" pads_begin="0, 0" pads_end="0, 0" auto_pad="explicit"/>
			<rt_info>
				<attribute name="fused_names" version="0" value="425, 426, 79, 80, 81, 82"/>
			</rt_info>
			<input>
				<port id="0" precision="FP32">
					<dim>1</dim>
					<dim>32</dim>
					<dim>64</dim>
					<dim>64</dim>
				</port>
				<port id="1" precision="FP32">
					<dim>192</dim>
					<dim>32</dim>
					<dim>1</dim>
					<dim>1</dim>
				</port>
			</input>
			<output>
				<port id="2" precision="FP32">
					<dim>1</dim>
					<dim>192</dim>
					<dim>64</dim>
					<dim>64</dim>
				</port>
			</output>
		</layer>
		<layer id="66" name="Constant_16560" type="Const" version="opset1">
			<data element_type="f32" shape="1, 192, 1, 1" offset="124060" size="768"/>
			<output>
				<port id="0" precision="FP32">
					<dim>1</dim>
					<dim>192</dim>
					<dim>1</dim>
					<dim>1</dim>
				</port>
			</output>
		</layer>
		<layer id="67" name="426" type="Add" version="opset1">
			<data auto_broadcast="numpy"/>
			<rt_info>
				<attribute name="fused_names" version="0" value="426, 79, 80, 81, 82"/>
			</rt_info>
			<input>
				<port id="0" precision="FP32">
					<dim>1</dim>
					<dim>192</dim>
					<dim>64</dim>
					<dim>64</dim>
				</port>
				<port id="1" precision="FP32">
					<dim>1</dim>
					<dim>192</dim>
					<dim>1</dim>
					<dim>1</dim>
				</port>
			</input>
			<output>
				<port id="2" precision="FP32" names="426">
					<dim>1</dim>
					<dim>192</dim>
					<dim>64</dim>
					<dim>64</dim>
				</port>
			</output>
		</layer>
		<layer id="68" name="427" type="ReLU" version="opset1">
			<rt_info>
				<attribute name="fused_names" version="0" value="427"/>
			</rt_info>
			<input>
				<port id="0" precision="FP32">
					<dim>1</dim>
					<dim>192</dim>
					<dim>64</dim>
					<dim>64</dim>
				</port>
			</input>
			<output>
				<port id="1" precision="FP32" names="427">
					<dim>1</dim>
					<dim>192</dim>
					<dim>64</dim>
					<dim>64</dim>
				</port>
			</output>
		</layer>
		<layer id="69" name="Multiply_17036" type="Const" version="opset1">
			<data element_type="f32" shape="192, 1, 1, 3, 3" offset="124828" size="6912"/>
			<output>
				<port id="0" precision="FP32">
					<dim>192</dim>
					<dim>1</dim>
					<dim>1</dim>
					<dim>3</dim>
					<dim>3</dim>
				</port>
			</output>
		</layer>
		<layer id="70" name="Multiply_16562" type="GroupConvolution" version="opset1">
			<data strides="1, 1" pads_begin="1, 1" pads_end="1, 1" dilations="1, 1" auto_pad="explicit"/>
			<rt_info>
				<attribute name="fused_names" version="0" value="429, 85, 86, 87, 88"/>
			</rt_info>
			<input>
				<port id="0" precision="FP32">
					<dim>1</dim>
					<dim>192</dim>
					<dim>64</dim>
					<dim>64</dim>
				</port>
				<port id="1" precision="FP32">
					<dim>192</dim>
					<dim>1</dim>
					<dim>1</dim>
					<dim>3</dim>
					<dim>3</dim>
				</port>
			</input>
			<output>
				<port id="2" precision="FP32" names="428">
					<dim>1</dim>
					<dim>192</dim>
					<dim>64</dim>
					<dim>64</dim>
				</port>
			</output>
		</layer>
		<layer id="71" name="Constant_16567" type="Const" version="opset1">
			<data element_type="f32" shape="1, 192, 1, 1" offset="131740" size="768"/>
			<output>
				<port id="0" precision="FP32">
					<dim>1</dim>
					<dim>192</dim>
					<dim>1</dim>
					<dim>1</dim>
				</port>
			</output>
		</layer>
		<layer id="72" name="429" type="Add" version="opset1">
			<data auto_broadcast="numpy"/>
			<rt_info>
				<attribute name="fused_names" version="0" value="429, 85, 86, 87, 88"/>
			</rt_info>
			<input>
				<port id="0" precision="FP32">
					<dim>1</dim>
					<dim>192</dim>
					<dim>64</dim>
					<dim>64</dim>
				</port>
				<port id="1" precision="FP32">
					<dim>1</dim>
					<dim>192</dim>
					<dim>1</dim>
					<dim>1</dim>
				</port>
			</input>
			<output>
				<port id="2" precision="FP32" names="429">
					<dim>1</dim>
					<dim>192</dim>
					<dim>64</dim>
					<dim>64</dim>
				</port>
			</output>
		</layer>
		<layer id="73" name="430" type="ReLU" version="opset1">
			<rt_info>
				<attribute name="fused_names" version="0" value="430"/>
			</rt_info>
			<input>
				<port id="0" precision="FP32">
					<dim>1</dim>
					<dim>192</dim>
					<dim>64</dim>
					<dim>64</dim>
				</port>
			</input>
			<output>
				<port id="1" precision="FP32" names="430">
					<dim>1</dim>
					<dim>192</dim>
					<dim>64</dim>
					<dim>64</dim>
				</port>
			</output>
		</layer>
		<layer id="74" name="Multiply_17044" type="Const" version="opset1">
			<data element_type="f32" shape="32, 192, 1, 1" offset="132508" size="24576"/>
			<output>
				<port id="0" precision="FP32">
					<dim>32</dim>
					<dim>192</dim>
					<dim>1</dim>
					<dim>1</dim>
				</port>
			</output>
		</layer>
		<layer id="75" name="Multiply_16569" type="Convolution" version="opset1">
			<data strides="1, 1" dilations="1, 1" pads_begin="0, 0" pads_end="0, 0" auto_pad="explicit"/>
			<rt_info>
				<attribute name="fused_names" version="0" value="431, 432, 91, 92, 93, 94"/>
			</rt_info>
			<input>
				<port id="0" precision="FP32">
					<dim>1</dim>
					<dim>192</dim>
					<dim>64</dim>
					<dim>64</dim>
				</port>
				<port id="1" precision="FP32">
					<dim>32</dim>
					<dim>192</dim>
					<dim>1</dim>
					<dim>1</dim>
				</port>
			</input>
			<output>
				<port id="2" precision="FP32">
					<dim>1</dim>
					<dim>32</dim>
					<dim>64</dim>
					<dim>64</dim>
				</port>
			</output>
		</layer>
		<layer id="76" name="Constant_16574" type="Const" version="opset1">
			<data element_type="f32" shape="1, 32, 1, 1" offset="157084" size="128"/>
			<output>
				<port id="0" precision="FP32">
					<dim>1</dim>
					<dim>32</dim>
					<dim>1</dim>
					<dim>1</dim>
				</port>
			</output>
		</layer>
		<layer id="77" name="432" type="Add" version="opset1">
			<data auto_broadcast="numpy"/>
			<rt_info>
				<attribute name="fused_names" version="0" value="432, 91, 92, 93, 94"/>
			</rt_info>
			<input>
				<port id="0" precision="FP32">
					<dim>1</dim>
					<dim>32</dim>
					<dim>64</dim>
					<dim>64</dim>
				</port>
				<port id="1" precision="FP32">
					<dim>1</dim>
					<dim>32</dim>
					<dim>1</dim>
					<dim>1</dim>
				</port>
			</input>
			<output>
				<port id="2" precision="FP32" names="432">
					<dim>1</dim>
					<dim>32</dim>
					<dim>64</dim>
					<dim>64</dim>
				</port>
			</output>
		</layer>
		<layer id="78" name="433" type="Add" version="opset1">
			<data auto_broadcast="numpy"/>
			<rt_info>
				<attribute name="fused_names" version="0" value="433"/>
			</rt_info>
			<input>
				<port id="0" precision="FP32">
					<dim>1</dim>
					<dim>32</dim>
					<dim>64</dim>
					<dim>64</dim>
				</port>
				<port id="1" precision="FP32">
					<dim>1</dim>
					<dim>32</dim>
					<dim>64</dim>
					<dim>64</dim>
				</port>
			</input>
			<output>
				<port id="2" precision="FP32" names="433">
					<dim>1</dim>
					<dim>32</dim>
					<dim>64</dim>
					<dim>64</dim>
				</port>
			</output>
		</layer>
		<layer id="79" name="Multiply_17053" type="Const" version="opset1">
			<data element_type="f32" shape="192, 32, 1, 1" offset="157212" size="24576"/>
			<output>
				<port id="0" precision="FP32">
					<dim>192</dim>
					<dim>32</dim>
					<dim>1</dim>
					<dim>1</dim>
				</port>
			</output>
		</layer>
		<layer id="80" name="Multiply_16576" type="Convolution" version="opset1">
			<data strides="1, 1" dilations="1, 1" pads_begin="0, 0" pads_end="0, 0" auto_pad="explicit"/>
			<rt_info>
				<attribute name="fused_names" version="0" value="100, 434, 435, 97, 98, 99"/>
			</rt_info>
			<input>
				<port id="0" precision="FP32">
					<dim>1</dim>
					<dim>32</dim>
					<dim>64</dim>
					<dim>64</dim>
				</port>
				<port id="1" precision="FP32">
					<dim>192</dim>
					<dim>32</dim>
					<dim>1</dim>
					<dim>1</dim>
				</port>
			</input>
			<output>
				<port id="2" precision="FP32">
					<dim>1</dim>
					<dim>192</dim>
					<dim>64</dim>
					<dim>64</dim>
				</port>
			</output>
		</layer>
		<layer id="81" name="Constant_16581" type="Const" version="opset1">
			<data element_type="f32" shape="1, 192, 1, 1" offset="181788" size="768"/>
			<output>
				<port id="0" precision="FP32">
					<dim>1</dim>
					<dim>192</dim>
					<dim>1</dim>
					<dim>1</dim>
				</port>
			</output>
		</layer>
		<layer id="82" name="435" type="Add" version="opset1">
			<data auto_broadcast="numpy"/>
			<rt_info>
				<attribute name="fused_names" version="0" value="100, 435, 97, 98, 99"/>
			</rt_info>
			<input>
				<port id="0" precision="FP32">
					<dim>1</dim>
					<dim>192</dim>
					<dim>64</dim>
					<dim>64</dim>
				</port>
				<port id="1" precision="FP32">
					<dim>1</dim>
					<dim>192</dim>
					<dim>1</dim>
					<dim>1</dim>
				</port>
			</input>
			<output>
				<port id="2" precision="FP32" names="435">
					<dim>1</dim>
					<dim>192</dim>
					<dim>64</dim>
					<dim>64</dim>
				</port>
			</output>
		</layer>
		<layer id="83" name="436" type="ReLU" version="opset1">
			<rt_info>
				<attribute name="fused_names" version="0" value="436"/>
			</rt_info>
			<input>
				<port id="0" precision="FP32">
					<dim>1</dim>
					<dim>192</dim>
					<dim>64</dim>
					<dim>64</dim>
				</port>
			</input>
			<output>
				<port id="1" precision="FP32" names="436">
					<dim>1</dim>
					<dim>192</dim>
					<dim>64</dim>
					<dim>64</dim>
				</port>
			</output>
		</layer>
		<layer id="84" name="Multiply_17062" type="Const" version="opset1">
			<data element_type="f32" shape="192, 1, 1, 3, 3" offset="182556" size="6912"/>
			<output>
				<port id="0" precision="FP32">
					<dim>192</dim>
					<dim>1</dim>
					<dim>1</dim>
					<dim>3</dim>
					<dim>3</dim>
				</port>
			</output>
		</layer>
		<layer id="85" name="Multiply_16583" type="GroupConvolution" version="opset1">
			<data strides="1, 1" pads_begin="1, 1" pads_end="1, 1" dilations="1, 1" auto_pad="explicit"/>
			<rt_info>
				<attribute name="fused_names" version="0" value="103, 104, 105, 106, 438"/>
			</rt_info>
			<input>
				<port id="0" precision="FP32">
					<dim>1</dim>
					<dim>192</dim>
					<dim>64</dim>
					<dim>64</dim>
				</port>
				<port id="1" precision="FP32">
					<dim>192</dim>
					<dim>1</dim>
					<dim>1</dim>
					<dim>3</dim>
					<dim>3</dim>
				</port>
			</input>
			<output>
				<port id="2" precision="FP32" names="437">
					<dim>1</dim>
					<dim>192</dim>
					<dim>64</dim>
					<dim>64</dim>
				</port>
			</output>
		</layer>
		<layer id="86" name="Constant_16588" type="Const" version="opset1">
			<data element_type="f32" shape="1, 192, 1, 1" offset="189468" size="768"/>
			<output>
				<port id="0" precision="FP32">
					<dim>1</dim>
					<dim>192</dim>
					<dim>1</dim>
					<dim>1</dim>
				</port>
			</output>
		</layer>
		<layer id="87" name="438" type="Add" version="opset1">
			<data auto_broadcast="numpy"/>
			<rt_info>
				<attribute name="fused_names" version="0" value="103, 104, 105, 106, 438"/>
			</rt_info>
			<input>
				<port id="0" precision="FP32">
					<dim>1</dim>
					<dim>192</dim>
					<dim>64</dim>
					<dim>64</dim>
				</port>
				<port id="1" precision="FP32">
					<dim>1</dim>
					<dim>192</dim>
					<dim>1</dim>
					<dim>1</dim>
				</port>
			</input>
			<output>
				<port id="2" precision="FP32" names="438">
					<dim>1</dim>
					<dim>192</dim>
					<dim>64</dim>
					<dim>64</dim>
				</port>
			</output>
		</layer>
		<layer id="88" name="439" type="ReLU" version="opset1">
			<rt_info>
				<attribute name="fused_names" version="0" value="439"/>
			</rt_info>
			<input>
				<port id="0" precision="FP32">
					<dim>1</dim>
					<dim>192</dim>
					<dim>64</dim>
					<dim>64</dim>
				</port>
			</input>
			<output>
				<port id="1" precision="FP32" names="439">
					<dim>1</dim>
					<dim>192</dim>
					<dim>64</dim>
					<dim>64</dim>
				</port>
			</output>
		</layer>
		<layer id="89" name="Multiply_17070" type="Const" version="opset1">
			<data element_type="f32" shape="32, 192, 1, 1" offset="190236" size="24576"/>
			<output>
				<port id="0" precision="FP32">
					<dim>32</dim>
					<dim>192</dim>
					<dim>1</dim>
					<dim>1</dim>
				</port>
			</output>
		</layer>
		<layer id="90" name="Multiply_16590" type="Convolution" version="opset1">
			<data strides="1, 1" dilations="1, 1" pads_begin="0, 0" pads_end="0, 0" auto_pad="explicit"/>
			<rt_info>
				<attribute name="fused_names" version="0" value="109, 110, 111, 112, 440, 441"/>
			</rt_info>
			<input>
				<port id="0" precision="FP32">
					<dim>1</dim>
					<dim>192</dim>
					<dim>64</dim>
					<dim>64</dim>
				</port>
				<port id="1" precision="FP32">
					<dim>32</dim>
					<dim>192</dim>
					<dim>1</dim>
					<dim>1</dim>
				</port>
			</input>
			<output>
				<port id="2" precision="FP32">
					<dim>1</dim>
					<dim>32</dim>
					<dim>64</dim>
					<dim>64</dim>
				</port>
			</output>
		</layer>
		<layer id="91" name="Constant_16595" type="Const" version="opset1">
			<data element_type="f32" shape="1, 32, 1, 1" offset="214812" size="128"/>
			<output>
				<port id="0" precision="FP32">
					<dim>1</dim>
					<dim>32</dim>
					<dim>1</dim>
					<dim>1</dim>
				</port>
			</output>
		</layer>
		<layer id="92" name="441" type="Add" version="opset1">
			<data auto_broadcast="numpy"/>
			<rt_info>
				<attribute name="fused_names" version="0" value="109, 110, 111, 112, 441"/>
			</rt_info>
			<input>
				<port id="0" precision="FP32">
					<dim>1</dim>
					<dim>32</dim>
					<dim>64</dim>
					<dim>64</dim>
				</port>
				<port id="1" precision="FP32">
					<dim>1</dim>
					<dim>32</dim>
					<dim>1</dim>
					<dim>1</dim>
				</port>
			</input>
			<output>
				<port id="2" precision="FP32" names="441">
					<dim>1</dim>
					<dim>32</dim>
					<dim>64</dim>
					<dim>64</dim>
				</port>
			</output>
		</layer>
		<layer id="93" name="442" type="Add" version="opset1">
			<data auto_broadcast="numpy"/>
			<rt_info>
				<attribute name="fused_names" version="0" value="442"/>
			</rt_info>
			<input>
				<port id="0" precision="FP32">
					<dim>1</dim>
					<dim>32</dim>
					<dim>64</dim>
					<dim>64</dim>
				</port>
				<port id="1" precision="FP32">
					<dim>1</dim>
					<dim>32</dim>
					<dim>64</dim>
					<dim>64</dim>
				</port>
			</input>
			<output>
				<port id="2" precision="FP32" names="442">
					<dim>1</dim>
					<dim>32</dim>
					<dim>64</dim>
					<dim>64</dim>
				</port>
			</output>
		</layer>
		<layer id="94" name="Multiply_17079" type="Const" version="opset1">
			<data element_type="f32" shape="192, 32, 1, 1" offset="214940" size="24576"/>
			<output>
				<port id="0" precision="FP32">
					<dim>192</dim>
					<dim>32</dim>
					<dim>1</dim>
					<dim>1</dim>
				</port>
			</output>
		</layer>
		<layer id="95" name="Multiply_16597" type="Convolution" version="opset1">
			<data strides="1, 1" dilations="1, 1" pads_begin="0, 0" pads_end="0, 0" auto_pad="explicit"/>
			<rt_info>
				<attribute name="fused_names" version="0" value="115, 116, 117, 118, 443, 444"/>
			</rt_info>
			<input>
				<port id="0" precision="FP32">
					<dim>1</dim>
					<dim>32</dim>
					<dim>64</dim>
					<dim>64</dim>
				</port>
				<port id="1" precision="FP32">
					<dim>192</dim>
					<dim>32</dim>
					<dim>1</dim>
					<dim>1</dim>
				</port>
			</input>
			<output>
				<port id="2" precision="FP32">
					<dim>1</dim>
					<dim>192</dim>
					<dim>64</dim>
					<dim>64</dim>
				</port>
			</output>
		</layer>
		<layer id="96" name="Constant_16602" type="Const" version="opset1">
			<data element_type="f32" shape="1, 192, 1, 1" offset="239516" size="768"/>
			<output>
				<port id="0" precision="FP32">
					<dim>1</dim>
					<dim>192</dim>
					<dim>1</dim>
					<dim>1</dim>
				</port>
			</output>
		</layer>
		<layer id="97" name="444" type="Add" version="opset1">
			<data auto_broadcast="numpy"/>
			<rt_info>
				<attribute name="fused_names" version="0" value="115, 116, 117, 118, 444"/>
			</rt_info>
			<input>
				<port id="0" precision="FP32">
					<dim>1</dim>
					<dim>192</dim>
					<dim>64</dim>
					<dim>64</dim>
				</port>
				<port id="1" precision="FP32">
					<dim>1</dim>
					<dim>192</dim>
					<dim>1</dim>
					<dim>1</dim>
				</port>
			</input>
			<output>
				<port id="2" precision="FP32" names="444">
					<dim>1</dim>
					<dim>192</dim>
					<dim>64</dim>
					<dim>64</dim>
				</port>
			</output>
		</layer>
		<layer id="98" name="445" type="ReLU" version="opset1">
			<rt_info>
				<attribute name="fused_names" version="0" value="445"/>
			</rt_info>
			<input>
				<port id="0" precision="FP32">
					<dim>1</dim>
					<dim>192</dim>
					<dim>64</dim>
					<dim>64</dim>
				</port>
			</input>
			<output>
				<port id="1" precision="FP32" names="445">
					<dim>1</dim>
					<dim>192</dim>
					<dim>64</dim>
					<dim>64</dim>
				</port>
			</output>
		</layer>
		<layer id="99" name="Multiply_17088" type="Const" version="opset1">
			<data element_type="f32" shape="192, 1, 1, 3, 3" offset="240284" size="6912"/>
			<output>
				<port id="0" precision="FP32">
					<dim>192</dim>
					<dim>1</dim>
					<dim>1</dim>
					<dim>3</dim>
					<dim>3</dim>
				</port>
			</output>
		</layer>
		<layer id="100" name="Multiply_16604" type="GroupConvolution" version="opset1">
			<data strides="2, 2" pads_begin="1, 1" pads_end="1, 1" dilations="1, 1" auto_pad="explicit"/>
			<rt_info>
				<attribute name="fused_names" version="0" value="121, 122, 123, 124, 447"/>
			</rt_info>
			<input>
				<port id="0" precision="FP32">
					<dim>1</dim>
					<dim>192</dim>
					<dim>64</dim>
					<dim>64</dim>
				</port>
				<port id="1" precision="FP32">
					<dim>192</dim>
					<dim>1</dim>
					<dim>1</dim>
					<dim>3</dim>
					<dim>3</dim>
				</port>
			</input>
			<output>
				<port id="2" precision="FP32" names="446">
					<dim>1</dim>
					<dim>192</dim>
					<dim>32</dim>
					<dim>32</dim>
				</port>
			</output>
		</layer>
		<layer id="101" name="Constant_16609" type="Const" version="opset1">
			<data element_type="f32" shape="1, 192, 1, 1" offset="247196" size="768"/>
			<output>
				<port id="0" precision="FP32">
					<dim>1</dim>
					<dim>192</dim>
					<dim>1</dim>
					<dim>1</dim>
				</port>
			</output>
		</layer>
		<layer id="102" name="447" type="Add" version="opset1">
			<data auto_broadcast="numpy"/>
			<rt_info>
				<attribute name="fused_names" version="0" value="121, 122, 123, 124, 447"/>
			</rt_info>
			<input>
				<port id="0" precision="FP32">
					<dim>1</dim>
					<dim>192</dim>
					<dim>32</dim>
					<dim>32</dim>
				</port>
				<port id="1" precision="FP32">
					<dim>1</dim>
					<dim>192</dim>
					<dim>1</dim>
					<dim>1</dim>
				</port>
			</input>
			<output>
				<port id="2" precision="FP32" names="447">
					<dim>1</dim>
					<dim>192</dim>
					<dim>32</dim>
					<dim>32</dim>
				</port>
			</output>
		</layer>
		<layer id="103" name="448" type="ReLU" version="opset1">
			<rt_info>
				<attribute name="fused_names" version="0" value="448"/>
			</rt_info>
			<input>
				<port id="0" precision="FP32">
					<dim>1</dim>
					<dim>192</dim>
					<dim>32</dim>
					<dim>32</dim>
				</port>
			</input>
			<output>
				<port id="1" precision="FP32" names="448">
					<dim>1</dim>
					<dim>192</dim>
					<dim>32</dim>
					<dim>32</dim>
				</port>
			</output>
		</layer>
		<layer id="104" name="Multiply_17096" type="Const" version="opset1">
			<data element_type="f32" shape="64, 192, 1, 1" offset="247964" size="49152"/>
			<output>
				<port id="0" precision="FP32">
					<dim>64</dim>
					<dim>192</dim>
					<dim>1</dim>
					<dim>1</dim>
				</port>
			</output>
		</layer>
		<layer id="105" name="Multiply_16611" type="Convolution" version="opset1">
			<data strides="1, 1" dilations="1, 1" pads_begin="0, 0" pads_end="0, 0" auto_pad="explicit"/>
			<rt_info>
				<attribute name="fused_names" version="0" value="127, 128, 129, 130, 449, 450"/>
			</rt_info>
			<input>
				<port id="0" precision="FP32">
					<dim>1</dim>
					<dim>192</dim>
					<dim>32</dim>
					<dim>32</dim>
				</port>
				<port id="1" precision="FP32">
					<dim>64</dim>
					<dim>192</dim>
					<dim>1</dim>
					<dim>1</dim>
				</port>
			</input>
			<output>
				<port id="2" precision="FP32">
					<dim>1</dim>
					<dim>64</dim>
					<dim>32</dim>
					<dim>32</dim>
				</port>
			</output>
		</layer>
		<layer id="106" name="Constant_16616" type="Const" version="opset1">
			<data element_type="f32" shape="1, 64, 1, 1" offset="297116" size="256"/>
			<output>
				<port id="0" precision="FP32">
					<dim>1</dim>
					<dim>64</dim>
					<dim>1</dim>
					<dim>1</dim>
				</port>
			</output>
		</layer>
		<layer id="107" name="450" type="Add" version="opset1">
			<data auto_broadcast="numpy"/>
			<rt_info>
				<attribute name="fused_names" version="0" value="127, 128, 129, 130, 450"/>
			</rt_info>
			<input>
				<port id="0" precision="FP32">
					<dim>1</dim>
					<dim>64</dim>
					<dim>32</dim>
					<dim>32</dim>
				</port>
				<port id="1" precision="FP32">
					<dim>1</dim>
					<dim>64</dim>
					<dim>1</dim>
					<dim>1</dim>
				</port>
			</input>
			<output>
				<port id="2" precision="FP32" names="450">
					<dim>1</dim>
					<dim>64</dim>
					<dim>32</dim>
					<dim>32</dim>
				</port>
			</output>
		</layer>
		<layer id="108" name="Multiply_17105" type="Const" version="opset1">
			<data element_type="f32" shape="384, 64, 1, 1" offset="297372" size="98304"/>
			<output>
				<port id="0" precision="FP32">
					<dim>384</dim>
					<dim>64</dim>
					<dim>1</dim>
					<dim>1</dim>
				</port>
			</output>
		</layer>
		<layer id="109" name="Multiply_16618" type="Convolution" version="opset1">
			<data strides="1, 1" dilations="1, 1" pads_begin="0, 0" pads_end="0, 0" auto_pad="explicit"/>
			<rt_info>
				<attribute name="fused_names" version="0" value="133, 134, 135, 136, 451, 452"/>
			</rt_info>
			<input>
				<port id="0" precision="FP32">
					<dim>1</dim>
					<dim>64</dim>
					<dim>32</dim>
					<dim>32</dim>
				</port>
				<port id="1" precision="FP32">
					<dim>384</dim>
					<dim>64</dim>
					<dim>1</dim>
					<dim>1</dim>
				</port>
			</input>
			<output>
				<port id="2" precision="FP32">
					<dim>1</dim>
					<dim>384</dim>
					<dim>32</dim>
					<dim>32</dim>
				</port>
			</output>
		</layer>
		<layer id="110" name="Constant_16623" type="Const" version="opset1">
			<data element_type="f32" shape="1, 384, 1, 1" offset="395676" size="1536"/>
			<output>
				<port id="0" precision="FP32">
					<dim>1</dim>
					<dim>384</dim>
					<dim>1</dim>
					<dim>1</dim>
				</port>
			</output>
		</layer>
		<layer id="111" name="452" type="Add" version="opset1">
			<data auto_broadcast="numpy"/>
			<rt_info>
				<attribute name="fused_names" version="0" value="133, 134, 135, 136, 452"/>
			</rt_info>
			<input>
				<port id="0" precision="FP32">
					<dim>1</dim>
					<dim>384</dim>
					<dim>32</dim>
					<dim>32</dim>
				</port>
				<port id="1" precision="FP32">
					<dim>1</dim>
					<dim>384</dim>
					<dim>1</dim>
					<dim>1</dim>
				</port>
			</input>
			<output>
				<port id="2" precision="FP32" names="452">
					<dim>1</dim>
					<dim>384</dim>
					<dim>32</dim>
					<dim>32</dim>
				</port>
			</output>
		</layer>
		<layer id="112" name="453" type="ReLU" version="opset1">
			<rt_info>
				<attribute name="fused_names" version="0" value="453"/>
			</rt_info>
			<input>
				<port id="0" precision="FP32">
					<dim>1</dim>
					<dim>384</dim>
					<dim>32</dim>
					<dim>32</dim>
				</port>
			</input>
			<output>
				<port id="1" precision="FP32" names="453">
					<dim>1</dim>
					<dim>384</dim>
					<dim>32</dim>
					<dim>32</dim>
				</port>
			</output>
		</layer>
		<layer id="113" name="Multiply_17114" type="Const" version="opset1">
			<data element_type="f32" shape="384, 1, 1, 3, 3" offset="397212" size="13824"/>
			<output>
				<port id="0" precision="FP32">
					<dim>384</dim>
					<dim>1</dim>
					<dim>1</dim>
					<dim>3</dim>
					<dim>3</dim>
				</port>
			</output>
		</layer>
		<layer id="114" name="Multiply_16625" type="GroupConvolution" version="opset1">
			<data strides="1, 1" pads_begin="1, 1" pads_end="1, 1" dilations="1, 1" auto_pad="explicit"/>
			<rt_info>
				<attribute name="fused_names" version="0" value="139, 140, 141, 142, 455"/>
			</rt_info>
			<input>
				<port id="0" precision="FP32">
					<dim>1</dim>
					<dim>384</dim>
					<dim>32</dim>
					<dim>32</dim>
				</port>
				<port id="1" precision="FP32">
					<dim>384</dim>
					<dim>1</dim>
					<dim>1</dim>
					<dim>3</dim>
					<dim>3</dim>
				</port>
			</input>
			<output>
				<port id="2" precision="FP32" names="454">
					<dim>1</dim>
					<dim>384</dim>
					<dim>32</dim>
					<dim>32</dim>
				</port>
			</output>
		</layer>
		<layer id="115" name="Constant_16630" type="Const" version="opset1">
			<data element_type="f32" shape="1, 384, 1, 1" offset="411036" size="1536"/>
			<output>
				<port id="0" precision="FP32">
					<dim>1</dim>
					<dim>384</dim>
					<dim>1</dim>
					<dim>1</dim>
				</port>
			</output>
		</layer>
		<layer id="116" name="455" type="Add" version="opset1">
			<data auto_broadcast="numpy"/>
			<rt_info>
				<attribute name="fused_names" version="0" value="139, 140, 141, 142, 455"/>
			</rt_info>
			<input>
				<port id="0" precision="FP32">
					<dim>1</dim>
					<dim>384</dim>
					<dim>32</dim>
					<dim>32</dim>
				</port>
				<port id="1" precision="FP32">
					<dim>1</dim>
					<dim>384</dim>
					<dim>1</dim>
					<dim>1</dim>
				</port>
			</input>
			<output>
				<port id="2" precision="FP32" names="455">
					<dim>1</dim>
					<dim>384</dim>
					<dim>32</dim>
					<dim>32</dim>
				</port>
			</output>
		</layer>
		<layer id="117" name="456" type="ReLU" version="opset1">
			<rt_info>
				<attribute name="fused_names" version="0" value="456"/>
			</rt_info>
			<input>
				<port id="0" precision="FP32">
					<dim>1</dim>
					<dim>384</dim>
					<dim>32</dim>
					<dim>32</dim>
				</port>
			</input>
			<output>
				<port id="1" precision="FP32" names="456">
					<dim>1</dim>
					<dim>384</dim>
					<dim>32</dim>
					<dim>32</dim>
				</port>
			</output>
		</layer>
		<layer id="118" name="Multiply_17122" type="Const" version="opset1">
			<data element_type="f32" shape="64, 384, 1, 1" offset="412572" size="98304"/>
			<output>
				<port id="0" precision="FP32">
					<dim>64</dim>
					<dim>384</dim>
					<dim>1</dim>
					<dim>1</dim>
				</port>
			</output>
		</layer>
		<layer id="119" name="Multiply_16632" type="Convolution" version="opset1">
			<data strides="1, 1" dilations="1, 1" pads_begin="0, 0" pads_end="0, 0" auto_pad="explicit"/>
			<rt_info>
				<attribute name="fused_names" version="0" value="145, 146, 147, 148, 457, 458"/>
			</rt_info>
			<input>
				<port id="0" precision="FP32">
					<dim>1</dim>
					<dim>384</dim>
					<dim>32</dim>
					<dim>32</dim>
				</port>
				<port id="1" precision="FP32">
					<dim>64</dim>
					<dim>384</dim>
					<dim>1</dim>
					<dim>1</dim>
				</port>
			</input>
			<output>
				<port id="2" precision="FP32">
					<dim>1</dim>
					<dim>64</dim>
					<dim>32</dim>
					<dim>32</dim>
				</port>
			</output>
		</layer>
		<layer id="120" name="Constant_16637" type="Const" version="opset1">
			<data element_type="f32" shape="1, 64, 1, 1" offset="510876" size="256"/>
			<output>
				<port id="0" precision="FP32">
					<dim>1</dim>
					<dim>64</dim>
					<dim>1</dim>
					<dim>1</dim>
				</port>
			</output>
		</layer>
		<layer id="121" name="458" type="Add" version="opset1">
			<data auto_broadcast="numpy"/>
			<rt_info>
				<attribute name="fused_names" version="0" value="145, 146, 147, 148, 458"/>
			</rt_info>
			<input>
				<port id="0" precision="FP32">
					<dim>1</dim>
					<dim>64</dim>
					<dim>32</dim>
					<dim>32</dim>
				</port>
				<port id="1" precision="FP32">
					<dim>1</dim>
					<dim>64</dim>
					<dim>1</dim>
					<dim>1</dim>
				</port>
			</input>
			<output>
				<port id="2" precision="FP32" names="458">
					<dim>1</dim>
					<dim>64</dim>
					<dim>32</dim>
					<dim>32</dim>
				</port>
			</output>
		</layer>
		<layer id="122" name="459" type="Add" version="opset1">
			<data auto_broadcast="numpy"/>
			<rt_info>
				<attribute name="fused_names" version="0" value="459"/>
			</rt_info>
			<input>
				<port id="0" precision="FP32">
					<dim>1</dim>
					<dim>64</dim>
					<dim>32</dim>
					<dim>32</dim>
				</port>
				<port id="1" precision="FP32">
					<dim>1</dim>
					<dim>64</dim>
					<dim>32</dim>
					<dim>32</dim>
				</port>
			</input>
			<output>
				<port id="2" precision="FP32" names="459">
					<dim>1</dim>
					<dim>64</dim>
					<dim>32</dim>
					<dim>32</dim>
				</port>
			</output>
		</layer>
		<layer id="123" name="Multiply_17131" type="Const" version="opset1">
			<data element_type="f32" shape="384, 64, 1, 1" offset="511132" size="98304"/>
			<output>
				<port id="0" precision="FP32">
					<dim>384</dim>
					<dim>64</dim>
					<dim>1</dim>
					<dim>1</dim>
				</port>
			</output>
		</layer>
		<layer id="124" name="Multiply_16639" type="Convolution" version="opset1">
			<data strides="1, 1" dilations="1, 1" pads_begin="0, 0" pads_end="0, 0" auto_pad="explicit"/>
			<rt_info>
				<attribute name="fused_names" version="0" value="151, 152, 153, 154, 460, 461"/>
			</rt_info>
			<input>
				<port id="0" precision="FP32">
					<dim>1</dim>
					<dim>64</dim>
					<dim>32</dim>
					<dim>32</dim>
				</port>
				<port id="1" precision="FP32">
					<dim>384</dim>
					<dim>64</dim>
					<dim>1</dim>
					<dim>1</dim>
				</port>
			</input>
			<output>
				<port id="2" precision="FP32">
					<dim>1</dim>
					<dim>384</dim>
					<dim>32</dim>
					<dim>32</dim>
				</port>
			</output>
		</layer>
		<layer id="125" name="Constant_16644" type="Const" version="opset1">
			<data element_type="f32" shape="1, 384, 1, 1" offset="609436" size="1536"/>
			<output>
				<port id="0" precision="FP32">
					<dim>1</dim>
					<dim>384</dim>
					<dim>1</dim>
					<dim>1</dim>
				</port>
			</output>
		</layer>
		<layer id="126" name="461" type="Add" version="opset1">
			<data auto_broadcast="numpy"/>
			<rt_info>
				<attribute name="fused_names" version="0" value="151, 152, 153, 154, 461"/>
			</rt_info>
			<input>
				<port id="0" precision="FP32">
					<dim>1</dim>
					<dim>384</dim>
					<dim>32</dim>
					<dim>32</dim>
				</port>
				<port id="1" precision="FP32">
					<dim>1</dim>
					<dim>384</dim>
					<dim>1</dim>
					<dim>1</dim>
				</port>
			</input>
			<output>
				<port id="2" precision="FP32" names="461">
					<dim>1</dim>
					<dim>384</dim>
					<dim>32</dim>
					<dim>32</dim>
				</port>
			</output>
		</layer>
		<layer id="127" name="462" type="ReLU" version="opset1">
			<rt_info>
				<attribute name="fused_names" version="0" value="462"/>
			</rt_info>
			<input>
				<port id="0" precision="FP32">
					<dim>1</dim>
					<dim>384</dim>
					<dim>32</dim>
					<dim>32</dim>
				</port>
			</input>
			<output>
				<port id="1" precision="FP32" names="462">
					<dim>1</dim>
					<dim>384</dim>
					<dim>32</dim>
					<dim>32</dim>
				</port>
			</output>
		</layer>
		<layer id="128" name="Multiply_17140" type="Const" version="opset1">
			<data element_type="f32" shape="384, 1, 1, 3, 3" offset="610972" size="13824"/>
			<output>
				<port id="0" precision="FP32">
					<dim>384</dim>
					<dim>1</dim>
					<dim>1</dim>
					<dim>3</dim>
					<dim>3</dim>
				</port>
			</output>
		</layer>
		<layer id="129" name="Multiply_16646" type="GroupConvolution" version="opset1">
			<data strides="1, 1" pads_begin="1, 1" pads_end="1, 1" dilations="1, 1" auto_pad="explicit"/>
			<rt_info>
				<attribute name="fused_names" version="0" value="157, 158, 159, 160, 464"/>
			</rt_info>
			<input>
				<port id="0" precision="FP32">
					<dim>1</dim>
					<dim>384</dim>
					<dim>32</dim>
					<dim>32</dim>
				</port>
				<port id="1" precision="FP32">
					<dim>384</dim>
					<dim>1</dim>
					<dim>1</dim>
					<dim>3</dim>
					<dim>3</dim>
				</port>
			</input>
			<output>
				<port id="2" precision="FP32" names="463">
					<dim>1</dim>
					<dim>384</dim>
					<dim>32</dim>
					<dim>32</dim>
				</port>
			</output>
		</layer>
		<layer id="130" name="Constant_16651" type="Const" version="opset1">
			<data element_type="f32" shape="1, 384, 1, 1" offset="624796" size="1536"/>
			<output>
				<port id="0" precision="FP32">
					<dim>1</dim>
					<dim>384</dim>
					<dim>1</dim>
					<dim>1</dim>
				</port>
			</output>
		</layer>
		<layer id="131" name="464" type="Add" version="opset1">
			<data auto_broadcast="numpy"/>
			<rt_info>
				<attribute name="fused_names" version="0" value="157, 158, 159, 160, 464"/>
			</rt_info>
			<input>
				<port id="0" precision="FP32">
					<dim>1</dim>
					<dim>384</dim>
					<dim>32</dim>
					<dim>32</dim>
				</port>
				<port id="1" precision="FP32">
					<dim>1</dim>
					<dim>384</dim>
					<dim>1</dim>
					<dim>1</dim>
				</port>
			</input>
			<output>
				<port id="2" precision="FP32" names="464">
					<dim>1</dim>
					<dim>384</dim>
					<dim>32</dim>
					<dim>32</dim>
				</port>
			</output>
		</layer>
		<layer id="132" name="465" type="ReLU" version="opset1">
			<rt_info>
				<attribute name="fused_names" version="0" value="465"/>
			</rt_info>
			<input>
				<port id="0" precision="FP32">
					<dim>1</dim>
					<dim>384</dim>
					<dim>32</dim>
					<dim>32</dim>
				</port>
			</input>
			<output>
				<port id="1" precision="FP32" names="465">
					<dim>1</dim>
					<dim>384</dim>
					<dim>32</dim>
					<dim>32</dim>
				</port>
			</output>
		</layer>
		<layer id="133" name="Multiply_17148" type="Const" version="opset1">
			<data element_type="f32" shape="64, 384, 1, 1" offset="626332" size="98304"/>
			<output>
				<port id="0" precision="FP32">
					<dim>64</dim>
					<dim>384</dim>
					<dim>1</dim>
					<dim>1</dim>
				</port>
			</output>
		</layer>
		<layer id="134" name="Multiply_16653" type="Convolution" version="opset1">
			<data strides="1, 1" dilations="1, 1" pads_begin="0, 0" pads_end="0, 0" auto_pad="explicit"/>
			<rt_info>
				<attribute name="fused_names" version="0" value="163, 164, 165, 166, 466, 467"/>
			</rt_info>
			<input>
				<port id="0" precision="FP32">
					<dim>1</dim>
					<dim>384</dim>
					<dim>32</dim>
					<dim>32</dim>
				</port>
				<port id="1" precision="FP32">
					<dim>64</dim>
					<dim>384</dim>
					<dim>1</dim>
					<dim>1</dim>
				</port>
			</input>
			<output>
				<port id="2" precision="FP32">
					<dim>1</dim>
					<dim>64</dim>
					<dim>32</dim>
					<dim>32</dim>
				</port>
			</output>
		</layer>
		<layer id="135" name="Constant_16658" type="Const" version="opset1">
			<data element_type="f32" shape="1, 64, 1, 1" offset="724636" size="256"/>
			<output>
				<port id="0" precision="FP32">
					<dim>1</dim>
					<dim>64</dim>
					<dim>1</dim>
					<dim>1</dim>
				</port>
			</output>
		</layer>
		<layer id="136" name="467" type="Add" version="opset1">
			<data auto_broadcast="numpy"/>
			<rt_info>
				<attribute name="fused_names" version="0" value="163, 164, 165, 166, 467"/>
			</rt_info>
			<input>
				<port id="0" precision="FP32">
					<dim>1</dim>
					<dim>64</dim>
					<dim>32</dim>
					<dim>32</dim>
				</port>
				<port id="1" precision="FP32">
					<dim>1</dim>
					<dim>64</dim>
					<dim>1</dim>
					<dim>1</dim>
				</port>
			</input>
			<output>
				<port id="2" precision="FP32" names="467">
					<dim>1</dim>
					<dim>64</dim>
					<dim>32</dim>
					<dim>32</dim>
				</port>
			</output>
		</layer>
		<layer id="137" name="468" type="Add" version="opset1">
			<data auto_broadcast="numpy"/>
			<rt_info>
				<attribute name="fused_names" version="0" value="468"/>
			</rt_info>
			<input>
				<port id="0" precision="FP32">
					<dim>1</dim>
					<dim>64</dim>
					<dim>32</dim>
					<dim>32</dim>
				</port>
				<port id="1" precision="FP32">
					<dim>1</dim>
					<dim>64</dim>
					<dim>32</dim>
					<dim>32</dim>
				</port>
			</input>
			<output>
				<port id="2" precision="FP32" names="468">
					<dim>1</dim>
					<dim>64</dim>
					<dim>32</dim>
					<dim>32</dim>
				</port>
			</output>
		</layer>
		<layer id="138" name="Multiply_17157" type="Const" version="opset1">
			<data element_type="f32" shape="384, 64, 1, 1" offset="724892" size="98304"/>
			<output>
				<port id="0" precision="FP32">
					<dim>384</dim>
					<dim>64</dim>
					<dim>1</dim>
					<dim>1</dim>
				</port>
			</output>
		</layer>
		<layer id="139" name="Multiply_16660" type="Convolution" version="opset1">
			<data strides="1, 1" dilations="1, 1" pads_begin="0, 0" pads_end="0, 0" auto_pad="explicit"/>
			<rt_info>
				<attribute name="fused_names" version="0" value="169, 170, 171, 172, 469, 470"/>
			</rt_info>
			<input>
				<port id="0" precision="FP32">
					<dim>1</dim>
					<dim>64</dim>
					<dim>32</dim>
					<dim>32</dim>
				</port>
				<port id="1" precision="FP32">
					<dim>384</dim>
					<dim>64</dim>
					<dim>1</dim>
					<dim>1</dim>
				</port>
			</input>
			<output>
				<port id="2" precision="FP32">
					<dim>1</dim>
					<dim>384</dim>
					<dim>32</dim>
					<dim>32</dim>
				</port>
			</output>
		</layer>
		<layer id="140" name="Constant_16665" type="Const" version="opset1">
			<data element_type="f32" shape="1, 384, 1, 1" offset="823196" size="1536"/>
			<output>
				<port id="0" precision="FP32">
					<dim>1</dim>
					<dim>384</dim>
					<dim>1</dim>
					<dim>1</dim>
				</port>
			</output>
		</layer>
		<layer id="141" name="470" type="Add" version="opset1">
			<data auto_broadcast="numpy"/>
			<rt_info>
				<attribute name="fused_names" version="0" value="169, 170, 171, 172, 470"/>
			</rt_info>
			<input>
				<port id="0" precision="FP32">
					<dim>1</dim>
					<dim>384</dim>
					<dim>32</dim>
					<dim>32</dim>
				</port>
				<port id="1" precision="FP32">
					<dim>1</dim>
					<dim>384</dim>
					<dim>1</dim>
					<dim>1</dim>
				</port>
			</input>
			<output>
				<port id="2" precision="FP32" names="470">
					<dim>1</dim>
					<dim>384</dim>
					<dim>32</dim>
					<dim>32</dim>
				</port>
			</output>
		</layer>
		<layer id="142" name="471" type="ReLU" version="opset1">
			<rt_info>
				<attribute name="fused_names" version="0" value="471"/>
			</rt_info>
			<input>
				<port id="0" precision="FP32">
					<dim>1</dim>
					<dim>384</dim>
					<dim>32</dim>
					<dim>32</dim>
				</port>
			</input>
			<output>
				<port id="1" precision="FP32" names="471">
					<dim>1</dim>
					<dim>384</dim>
					<dim>32</dim>
					<dim>32</dim>
				</port>
			</output>
		</layer>
		<layer id="143" name="Multiply_17166" type="Const" version="opset1">
			<data element_type="f32" shape="384, 1, 1, 3, 3" offset="824732" size="13824"/>
			<output>
				<port id="0" precision="FP32">
					<dim>384</dim>
					<dim>1</dim>
					<dim>1</dim>
					<dim>3</dim>
					<dim>3</dim>
				</port>
			</output>
		</layer>
		<layer id="144" name="Multiply_16667" type="GroupConvolution" version="opset1">
			<data strides="1, 1" pads_begin="1, 1" pads_end="1, 1" dilations="1, 1" auto_pad="explicit"/>
			<rt_info>
				<attribute name="fused_names" version="0" value="175, 176, 177, 178, 473"/>
			</rt_info>
			<input>
				<port id="0" precision="FP32">
					<dim>1</dim>
					<dim>384</dim>
					<dim>32</dim>
					<dim>32</dim>
				</port>
				<port id="1" precision="FP32">
					<dim>384</dim>
					<dim>1</dim>
					<dim>1</dim>
					<dim>3</dim>
					<dim>3</dim>
				</port>
			</input>
			<output>
				<port id="2" precision="FP32" names="472">
					<dim>1</dim>
					<dim>384</dim>
					<dim>32</dim>
					<dim>32</dim>
				</port>
			</output>
		</layer>
		<layer id="145" name="Constant_16672" type="Const" version="opset1">
			<data element_type="f32" shape="1, 384, 1, 1" offset="838556" size="1536"/>
			<output>
				<port id="0" precision="FP32">
					<dim>1</dim>
					<dim>384</dim>
					<dim>1</dim>
					<dim>1</dim>
				</port>
			</output>
		</layer>
		<layer id="146" name="473" type="Add" version="opset1">
			<data auto_broadcast="numpy"/>
			<rt_info>
				<attribute name="fused_names" version="0" value="175, 176, 177, 178, 473"/>
			</rt_info>
			<input>
				<port id="0" precision="FP32">
					<dim>1</dim>
					<dim>384</dim>
					<dim>32</dim>
					<dim>32</dim>
				</port>
				<port id="1" precision="FP32">
					<dim>1</dim>
					<dim>384</dim>
					<dim>1</dim>
					<dim>1</dim>
				</port>
			</input>
			<output>
				<port id="2" precision="FP32" names="473">
					<dim>1</dim>
					<dim>384</dim>
					<dim>32</dim>
					<dim>32</dim>
				</port>
			</output>
		</layer>
		<layer id="147" name="474" type="ReLU" version="opset1">
			<rt_info>
				<attribute name="fused_names" version="0" value="474"/>
			</rt_info>
			<input>
				<port id="0" precision="FP32">
					<dim>1</dim>
					<dim>384</dim>
					<dim>32</dim>
					<dim>32</dim>
				</port>
			</input>
			<output>
				<port id="1" precision="FP32" names="474">
					<dim>1</dim>
					<dim>384</dim>
					<dim>32</dim>
					<dim>32</dim>
				</port>
			</output>
		</layer>
		<layer id="148" name="Multiply_17174" type="Const" version="opset1">
			<data element_type="f32" shape="64, 384, 1, 1" offset="840092" size="98304"/>
			<output>
				<port id="0" precision="FP32">
					<dim>64</dim>
					<dim>384</dim>
					<dim>1</dim>
					<dim>1</dim>
				</port>
			</output>
		</layer>
		<layer id="149" name="Multiply_16674" type="Convolution" version="opset1">
			<data strides="1, 1" dilations="1, 1" pads_begin="0, 0" pads_end="0, 0" auto_pad="explicit"/>
			<rt_info>
				<attribute name="fused_names" version="0" value="181, 182, 183, 184, 475, 476"/>
			</rt_info>
			<input>
				<port id="0" precision="FP32">
					<dim>1</dim>
					<dim>384</dim>
					<dim>32</dim>
					<dim>32</dim>
				</port>
				<port id="1" precision="FP32">
					<dim>64</dim>
					<dim>384</dim>
					<dim>1</dim>
					<dim>1</dim>
				</port>
			</input>
			<output>
				<port id="2" precision="FP32">
					<dim>1</dim>
					<dim>64</dim>
					<dim>32</dim>
					<dim>32</dim>
				</port>
			</output>
		</layer>
		<layer id="150" name="Constant_16679" type="Const" version="opset1">
			<data element_type="f32" shape="1, 64, 1, 1" offset="938396" size="256"/>
			<output>
				<port id="0" precision="FP32">
					<dim>1</dim>
					<dim>64</dim>
					<dim>1</dim>
					<dim>1</dim>
				</port>
			</output>
		</layer>
		<layer id="151" name="476" type="Add" version="opset1">
			<data auto_broadcast="numpy"/>
			<rt_info>
				<attribute name="fused_names" version="0" value="181, 182, 183, 184, 476"/>
			</rt_info>
			<input>
				<port id="0" precision="FP32">
					<dim>1</dim>
					<dim>64</dim>
					<dim>32</dim>
					<dim>32</dim>
				</port>
				<port id="1" precision="FP32">
					<dim>1</dim>
					<dim>64</dim>
					<dim>1</dim>
					<dim>1</dim>
				</port>
			</input>
			<output>
				<port id="2" precision="FP32" names="476">
					<dim>1</dim>
					<dim>64</dim>
					<dim>32</dim>
					<dim>32</dim>
				</port>
			</output>
		</layer>
		<layer id="152" name="477" type="Add" version="opset1">
			<data auto_broadcast="numpy"/>
			<rt_info>
				<attribute name="fused_names" version="0" value="477"/>
			</rt_info>
			<input>
				<port id="0" precision="FP32">
					<dim>1</dim>
					<dim>64</dim>
					<dim>32</dim>
					<dim>32</dim>
				</port>
				<port id="1" precision="FP32">
					<dim>1</dim>
					<dim>64</dim>
					<dim>32</dim>
					<dim>32</dim>
				</port>
			</input>
			<output>
				<port id="2" precision="FP32" names="477">
					<dim>1</dim>
					<dim>64</dim>
					<dim>32</dim>
					<dim>32</dim>
				</port>
			</output>
		</layer>
		<layer id="153" name="Multiply_17183" type="Const" version="opset1">
			<data element_type="f32" shape="384, 64, 1, 1" offset="938652" size="98304"/>
			<output>
				<port id="0" precision="FP32">
					<dim>384</dim>
					<dim>64</dim>
					<dim>1</dim>
					<dim>1</dim>
				</port>
			</output>
		</layer>
		<layer id="154" name="Multiply_16681" type="Convolution" version="opset1">
			<data strides="1, 1" dilations="1, 1" pads_begin="0, 0" pads_end="0, 0" auto_pad="explicit"/>
			<rt_info>
				<attribute name="fused_names" version="0" value="187, 188, 189, 190, 478, 479"/>
			</rt_info>
			<input>
				<port id="0" precision="FP32">
					<dim>1</dim>
					<dim>64</dim>
					<dim>32</dim>
					<dim>32</dim>
				</port>
				<port id="1" precision="FP32">
					<dim>384</dim>
					<dim>64</dim>
					<dim>1</dim>
					<dim>1</dim>
				</port>
			</input>
			<output>
				<port id="2" precision="FP32">
					<dim>1</dim>
					<dim>384</dim>
					<dim>32</dim>
					<dim>32</dim>
				</port>
			</output>
		</layer>
		<layer id="155" name="Constant_16686" type="Const" version="opset1">
			<data element_type="f32" shape="1, 384, 1, 1" offset="1036956" size="1536"/>
			<output>
				<port id="0" precision="FP32">
					<dim>1</dim>
					<dim>384</dim>
					<dim>1</dim>
					<dim>1</dim>
				</port>
			</output>
		</layer>
		<layer id="156" name="479" type="Add" version="opset1">
			<data auto_broadcast="numpy"/>
			<rt_info>
				<attribute name="fused_names" version="0" value="187, 188, 189, 190, 479"/>
			</rt_info>
			<input>
				<port id="0" precision="FP32">
					<dim>1</dim>
					<dim>384</dim>
					<dim>32</dim>
					<dim>32</dim>
				</port>
				<port id="1" precision="FP32">
					<dim>1</dim>
					<dim>384</dim>
					<dim>1</dim>
					<dim>1</dim>
				</port>
			</input>
			<output>
				<port id="2" precision="FP32" names="479">
					<dim>1</dim>
					<dim>384</dim>
					<dim>32</dim>
					<dim>32</dim>
				</port>
			</output>
		</layer>
		<layer id="157" name="480" type="ReLU" version="opset1">
			<rt_info>
				<attribute name="fused_names" version="0" value="480"/>
			</rt_info>
			<input>
				<port id="0" precision="FP32">
					<dim>1</dim>
					<dim>384</dim>
					<dim>32</dim>
					<dim>32</dim>
				</port>
			</input>
			<output>
				<port id="1" precision="FP32" names="480">
					<dim>1</dim>
					<dim>384</dim>
					<dim>32</dim>
					<dim>32</dim>
				</port>
			</output>
		</layer>
		<layer id="158" name="Multiply_17192" type="Const" version="opset1">
			<data element_type="f32" shape="384, 1, 1, 3, 3" offset="1038492" size="13824"/>
			<output>
				<port id="0" precision="FP32">
					<dim>384</dim>
					<dim>1</dim>
					<dim>1</dim>
					<dim>3</dim>
					<dim>3</dim>
				</port>
			</output>
		</layer>
		<layer id="159" name="Multiply_16688" type="GroupConvolution" version="opset1">
			<data strides="1, 1" pads_begin="1, 1" pads_end="1, 1" dilations="1, 1" auto_pad="explicit"/>
			<rt_info>
				<attribute name="fused_names" version="0" value="193, 194, 195, 196, 482"/>
			</rt_info>
			<input>
				<port id="0" precision="FP32">
					<dim>1</dim>
					<dim>384</dim>
					<dim>32</dim>
					<dim>32</dim>
				</port>
				<port id="1" precision="FP32">
					<dim>384</dim>
					<dim>1</dim>
					<dim>1</dim>
					<dim>3</dim>
					<dim>3</dim>
				</port>
			</input>
			<output>
				<port id="2" precision="FP32" names="481">
					<dim>1</dim>
					<dim>384</dim>
					<dim>32</dim>
					<dim>32</dim>
				</port>
			</output>
		</layer>
		<layer id="160" name="Constant_16693" type="Const" version="opset1">
			<data element_type="f32" shape="1, 384, 1, 1" offset="1052316" size="1536"/>
			<output>
				<port id="0" precision="FP32">
					<dim>1</dim>
					<dim>384</dim>
					<dim>1</dim>
					<dim>1</dim>
				</port>
			</output>
		</layer>
		<layer id="161" name="482" type="Add" version="opset1">
			<data auto_broadcast="numpy"/>
			<rt_info>
				<attribute name="fused_names" version="0" value="193, 194, 195, 196, 482"/>
			</rt_info>
			<input>
				<port id="0" precision="FP32">
					<dim>1</dim>
					<dim>384</dim>
					<dim>32</dim>
					<dim>32</dim>
				</port>
				<port id="1" precision="FP32">
					<dim>1</dim>
					<dim>384</dim>
					<dim>1</dim>
					<dim>1</dim>
				</port>
			</input>
			<output>
				<port id="2" precision="FP32" names="482">
					<dim>1</dim>
					<dim>384</dim>
					<dim>32</dim>
					<dim>32</dim>
				</port>
			</output>
		</layer>
		<layer id="162" name="483" type="ReLU" version="opset1">
			<rt_info>
				<attribute name="fused_names" version="0" value="483"/>
			</rt_info>
			<input>
				<port id="0" precision="FP32">
					<dim>1</dim>
					<dim>384</dim>
					<dim>32</dim>
					<dim>32</dim>
				</port>
			</input>
			<output>
				<port id="1" precision="FP32" names="483">
					<dim>1</dim>
					<dim>384</dim>
					<dim>32</dim>
					<dim>32</dim>
				</port>
			</output>
		</layer>
		<layer id="163" name="Multiply_17200" type="Const" version="opset1">
			<data element_type="f32" shape="96, 384, 1, 1" offset="1053852" size="147456"/>
			<output>
				<port id="0" precision="FP32">
					<dim>96</dim>
					<dim>384</dim>
					<dim>1</dim>
					<dim>1</dim>
				</port>
			</output>
		</layer>
		<layer id="164" name="Multiply_16695" type="Convolution" version="opset1">
			<data strides="1, 1" dilations="1, 1" pads_begin="0, 0" pads_end="0, 0" auto_pad="explicit"/>
			<rt_info>
				<attribute name="fused_names" version="0" value="199, 200, 201, 202, 484, 485"/>
			</rt_info>
			<input>
				<port id="0" precision="FP32">
					<dim>1</dim>
					<dim>384</dim>
					<dim>32</dim>
					<dim>32</dim>
				</port>
				<port id="1" precision="FP32">
					<dim>96</dim>
					<dim>384</dim>
					<dim>1</dim>
					<dim>1</dim>
				</port>
			</input>
			<output>
				<port id="2" precision="FP32">
					<dim>1</dim>
					<dim>96</dim>
					<dim>32</dim>
					<dim>32</dim>
				</port>
			</output>
		</layer>
		<layer id="165" name="Constant_16700" type="Const" version="opset1">
			<data element_type="f32" shape="1, 96, 1, 1" offset="1201308" size="384"/>
			<output>
				<port id="0" precision="FP32">
					<dim>1</dim>
					<dim>96</dim>
					<dim>1</dim>
					<dim>1</dim>
				</port>
			</output>
		</layer>
		<layer id="166" name="485" type="Add" version="opset1">
			<data auto_broadcast="numpy"/>
			<rt_info>
				<attribute name="fused_names" version="0" value="199, 200, 201, 202, 485"/>
			</rt_info>
			<input>
				<port id="0" precision="FP32">
					<dim>1</dim>
					<dim>96</dim>
					<dim>32</dim>
					<dim>32</dim>
				</port>
				<port id="1" precision="FP32">
					<dim>1</dim>
					<dim>96</dim>
					<dim>1</dim>
					<dim>1</dim>
				</port>
			</input>
			<output>
				<port id="2" precision="FP32" names="485">
					<dim>1</dim>
					<dim>96</dim>
					<dim>32</dim>
					<dim>32</dim>
				</port>
			</output>
		</layer>
		<layer id="167" name="Multiply_17209" type="Const" version="opset1">
			<data element_type="f32" shape="576, 96, 1, 1" offset="1201692" size="221184"/>
			<output>
				<port id="0" precision="FP32">
					<dim>576</dim>
					<dim>96</dim>
					<dim>1</dim>
					<dim>1</dim>
				</port>
			</output>
		</layer>
		<layer id="168" name="Multiply_16702" type="Convolution" version="opset1">
			<data strides="1, 1" dilations="1, 1" pads_begin="0, 0" pads_end="0, 0" auto_pad="explicit"/>
			<rt_info>
				<attribute name="fused_names" version="0" value="205, 206, 207, 208, 486, 487"/>
			</rt_info>
			<input>
				<port id="0" precision="FP32">
					<dim>1</dim>
					<dim>96</dim>
					<dim>32</dim>
					<dim>32</dim>
				</port>
				<port id="1" precision="FP32">
					<dim>576</dim>
					<dim>96</dim>
					<dim>1</dim>
					<dim>1</dim>
				</port>
			</input>
			<output>
				<port id="2" precision="FP32">
					<dim>1</dim>
					<dim>576</dim>
					<dim>32</dim>
					<dim>32</dim>
				</port>
			</output>
		</layer>
		<layer id="169" name="Constant_16707" type="Const" version="opset1">
			<data element_type="f32" shape="1, 576, 1, 1" offset="1422876" size="2304"/>
			<output>
				<port id="0" precision="FP32">
					<dim>1</dim>
					<dim>576</dim>
					<dim>1</dim>
					<dim>1</dim>
				</port>
			</output>
		</layer>
		<layer id="170" name="487" type="Add" version="opset1">
			<data auto_broadcast="numpy"/>
			<rt_info>
				<attribute name="fused_names" version="0" value="205, 206, 207, 208, 487"/>
			</rt_info>
			<input>
				<port id="0" precision="FP32">
					<dim>1</dim>
					<dim>576</dim>
					<dim>32</dim>
					<dim>32</dim>
				</port>
				<port id="1" precision="FP32">
					<dim>1</dim>
					<dim>576</dim>
					<dim>1</dim>
					<dim>1</dim>
				</port>
			</input>
			<output>
				<port id="2" precision="FP32" names="487">
					<dim>1</dim>
					<dim>576</dim>
					<dim>32</dim>
					<dim>32</dim>
				</port>
			</output>
		</layer>
		<layer id="171" name="488" type="ReLU" version="opset1">
			<rt_info>
				<attribute name="fused_names" version="0" value="488"/>
			</rt_info>
			<input>
				<port id="0" precision="FP32">
					<dim>1</dim>
					<dim>576</dim>
					<dim>32</dim>
					<dim>32</dim>
				</port>
			</input>
			<output>
				<port id="1" precision="FP32" names="488">
					<dim>1</dim>
					<dim>576</dim>
					<dim>32</dim>
					<dim>32</dim>
				</port>
			</output>
		</layer>
		<layer id="172" name="Multiply_17218" type="Const" version="opset1">
			<data element_type="f32" shape="576, 1, 1, 3, 3" offset="1425180" size="20736"/>
			<output>
				<port id="0" precision="FP32">
					<dim>576</dim>
					<dim>1</dim>
					<dim>1</dim>
					<dim>3</dim>
					<dim>3</dim>
				</port>
			</output>
		</layer>
		<layer id="173" name="Multiply_16709" type="GroupConvolution" version="opset1">
			<data strides="1, 1" pads_begin="1, 1" pads_end="1, 1" dilations="1, 1" auto_pad="explicit"/>
			<rt_info>
				<attribute name="fused_names" version="0" value="211, 212, 213, 214, 490"/>
			</rt_info>
			<input>
				<port id="0" precision="FP32">
					<dim>1</dim>
					<dim>576</dim>
					<dim>32</dim>
					<dim>32</dim>
				</port>
				<port id="1" precision="FP32">
					<dim>576</dim>
					<dim>1</dim>
					<dim>1</dim>
					<dim>3</dim>
					<dim>3</dim>
				</port>
			</input>
			<output>
				<port id="2" precision="FP32" names="489">
					<dim>1</dim>
					<dim>576</dim>
					<dim>32</dim>
					<dim>32</dim>
				</port>
			</output>
		</layer>
		<layer id="174" name="Constant_16714" type="Const" version="opset1">
			<data element_type="f32" shape="1, 576, 1, 1" offset="1445916" size="2304"/>
			<output>
				<port id="0" precision="FP32">
					<dim>1</dim>
					<dim>576</dim>
					<dim>1</dim>
					<dim>1</dim>
				</port>
			</output>
		</layer>
		<layer id="175" name="490" type="Add" version="opset1">
			<data auto_broadcast="numpy"/>
			<rt_info>
				<attribute name="fused_names" version="0" value="211, 212, 213, 214, 490"/>
			</rt_info>
			<input>
				<port id="0" precision="FP32">
					<dim>1</dim>
					<dim>576</dim>
					<dim>32</dim>
					<dim>32</dim>
				</port>
				<port id="1" precision="FP32">
					<dim>1</dim>
					<dim>576</dim>
					<dim>1</dim>
					<dim>1</dim>
				</port>
			</input>
			<output>
				<port id="2" precision="FP32" names="490">
					<dim>1</dim>
					<dim>576</dim>
					<dim>32</dim>
					<dim>32</dim>
				</port>
			</output>
		</layer>
		<layer id="176" name="491" type="ReLU" version="opset1">
			<rt_info>
				<attribute name="fused_names" version="0" value="491"/>
			</rt_info>
			<input>
				<port id="0" precision="FP32">
					<dim>1</dim>
					<dim>576</dim>
					<dim>32</dim>
					<dim>32</dim>
				</port>
			</input>
			<output>
				<port id="1" precision="FP32" names="491">
					<dim>1</dim>
					<dim>576</dim>
					<dim>32</dim>
					<dim>32</dim>
				</port>
			</output>
		</layer>
		<layer id="177" name="Multiply_17226" type="Const" version="opset1">
			<data element_type="f32" shape="96, 576, 1, 1" offset="1448220" size="221184"/>
			<output>
				<port id="0" precision="FP32">
					<dim>96</dim>
					<dim>576</dim>
					<dim>1</dim>
					<dim>1</dim>
				</port>
			</output>
		</layer>
		<layer id="178" name="Multiply_16716" type="Convolution" version="opset1">
			<data strides="1, 1" dilations="1, 1" pads_begin="0, 0" pads_end="0, 0" auto_pad="explicit"/>
			<rt_info>
				<attribute name="fused_names" version="0" value="217, 218, 219, 220, 492, 493"/>
			</rt_info>
			<input>
				<port id="0" precision="FP32">
					<dim>1</dim>
					<dim>576</dim>
					<dim>32</dim>
					<dim>32</dim>
				</port>
				<port id="1" precision="FP32">
					<dim>96</dim>
					<dim>576</dim>
					<dim>1</dim>
					<dim>1</dim>
				</port>
			</input>
			<output>
				<port id="2" precision="FP32">
					<dim>1</dim>
					<dim>96</dim>
					<dim>32</dim>
					<dim>32</dim>
				</port>
			</output>
		</layer>
		<layer id="179" name="Constant_16721" type="Const" version="opset1">
			<data element_type="f32" shape="1, 96, 1, 1" offset="1669404" size="384"/>
			<output>
				<port id="0" precision="FP32">
					<dim>1</dim>
					<dim>96</dim>
					<dim>1</dim>
					<dim>1</dim>
				</port>
			</output>
		</layer>
		<layer id="180" name="493" type="Add" version="opset1">
			<data auto_broadcast="numpy"/>
			<rt_info>
				<attribute name="fused_names" version="0" value="217, 218, 219, 220, 493"/>
			</rt_info>
			<input>
				<port id="0" precision="FP32">
					<dim>1</dim>
					<dim>96</dim>
					<dim>32</dim>
					<dim>32</dim>
				</port>
				<port id="1" precision="FP32">
					<dim>1</dim>
					<dim>96</dim>
					<dim>1</dim>
					<dim>1</dim>
				</port>
			</input>
			<output>
				<port id="2" precision="FP32" names="493">
					<dim>1</dim>
					<dim>96</dim>
					<dim>32</dim>
					<dim>32</dim>
				</port>
			</output>
		</layer>
		<layer id="181" name="494" type="Add" version="opset1">
			<data auto_broadcast="numpy"/>
			<rt_info>
				<attribute name="fused_names" version="0" value="494"/>
			</rt_info>
			<input>
				<port id="0" precision="FP32">
					<dim>1</dim>
					<dim>96</dim>
					<dim>32</dim>
					<dim>32</dim>
				</port>
				<port id="1" precision="FP32">
					<dim>1</dim>
					<dim>96</dim>
					<dim>32</dim>
					<dim>32</dim>
				</port>
			</input>
			<output>
				<port id="2" precision="FP32" names="494">
					<dim>1</dim>
					<dim>96</dim>
					<dim>32</dim>
					<dim>32</dim>
				</port>
			</output>
		</layer>
		<layer id="182" name="Multiply_17235" type="Const" version="opset1">
			<data element_type="f32" shape="576, 96, 1, 1" offset="1669788" size="221184"/>
			<output>
				<port id="0" precision="FP32">
					<dim>576</dim>
					<dim>96</dim>
					<dim>1</dim>
					<dim>1</dim>
				</port>
			</output>
		</layer>
		<layer id="183" name="Multiply_16723" type="Convolution" version="opset1">
			<data strides="1, 1" dilations="1, 1" pads_begin="0, 0" pads_end="0, 0" auto_pad="explicit"/>
			<rt_info>
				<attribute name="fused_names" version="0" value="223, 224, 225, 226, 495, 496"/>
			</rt_info>
			<input>
				<port id="0" precision="FP32">
					<dim>1</dim>
					<dim>96</dim>
					<dim>32</dim>
					<dim>32</dim>
				</port>
				<port id="1" precision="FP32">
					<dim>576</dim>
					<dim>96</dim>
					<dim>1</dim>
					<dim>1</dim>
				</port>
			</input>
			<output>
				<port id="2" precision="FP32">
					<dim>1</dim>
					<dim>576</dim>
					<dim>32</dim>
					<dim>32</dim>
				</port>
			</output>
		</layer>
		<layer id="184" name="Constant_16728" type="Const" version="opset1">
			<data element_type="f32" shape="1, 576, 1, 1" offset="1890972" size="2304"/>
			<output>
				<port id="0" precision="FP32">
					<dim>1</dim>
					<dim>576</dim>
					<dim>1</dim>
					<dim>1</dim>
				</port>
			</output>
		</layer>
		<layer id="185" name="496" type="Add" version="opset1">
			<data auto_broadcast="numpy"/>
			<rt_info>
				<attribute name="fused_names" version="0" value="223, 224, 225, 226, 496"/>
			</rt_info>
			<input>
				<port id="0" precision="FP32">
					<dim>1</dim>
					<dim>576</dim>
					<dim>32</dim>
					<dim>32</dim>
				</port>
				<port id="1" precision="FP32">
					<dim>1</dim>
					<dim>576</dim>
					<dim>1</dim>
					<dim>1</dim>
				</port>
			</input>
			<output>
				<port id="2" precision="FP32" names="496">
					<dim>1</dim>
					<dim>576</dim>
					<dim>32</dim>
					<dim>32</dim>
				</port>
			</output>
		</layer>
		<layer id="186" name="497" type="ReLU" version="opset1">
			<rt_info>
				<attribute name="fused_names" version="0" value="497"/>
			</rt_info>
			<input>
				<port id="0" precision="FP32">
					<dim>1</dim>
					<dim>576</dim>
					<dim>32</dim>
					<dim>32</dim>
				</port>
			</input>
			<output>
				<port id="1" precision="FP32" names="497">
					<dim>1</dim>
					<dim>576</dim>
					<dim>32</dim>
					<dim>32</dim>
				</port>
			</output>
		</layer>
		<layer id="187" name="Multiply_17244" type="Const" version="opset1">
			<data element_type="f32" shape="576, 1, 1, 3, 3" offset="1893276" size="20736"/>
			<output>
				<port id="0" precision="FP32">
					<dim>576</dim>
					<dim>1</dim>
					<dim>1</dim>
					<dim>3</dim>
					<dim>3</dim>
				</port>
			</output>
		</layer>
		<layer id="188" name="Multiply_16730" type="GroupConvolution" version="opset1">
			<data strides="1, 1" pads_begin="1, 1" pads_end="1, 1" dilations="1, 1" auto_pad="explicit"/>
			<rt_info>
				<attribute name="fused_names" version="0" value="229, 230, 231, 232, 499"/>
			</rt_info>
			<input>
				<port id="0" precision="FP32">
					<dim>1</dim>
					<dim>576</dim>
					<dim>32</dim>
					<dim>32</dim>
				</port>
				<port id="1" precision="FP32">
					<dim>576</dim>
					<dim>1</dim>
					<dim>1</dim>
					<dim>3</dim>
					<dim>3</dim>
				</port>
			</input>
			<output>
				<port id="2" precision="FP32" names="498">
					<dim>1</dim>
					<dim>576</dim>
					<dim>32</dim>
					<dim>32</dim>
				</port>
			</output>
		</layer>
		<layer id="189" name="Constant_16735" type="Const" version="opset1">
			<data element_type="f32" shape="1, 576, 1, 1" offset="1914012" size="2304"/>
			<output>
				<port id="0" precision="FP32">
					<dim>1</dim>
					<dim>576</dim>
					<dim>1</dim>
					<dim>1</dim>
				</port>
			</output>
		</layer>
		<layer id="190" name="499" type="Add" version="opset1">
			<data auto_broadcast="numpy"/>
			<rt_info>
				<attribute name="fused_names" version="0" value="229, 230, 231, 232, 499"/>
			</rt_info>
			<input>
				<port id="0" precision="FP32">
					<dim>1</dim>
					<dim>576</dim>
					<dim>32</dim>
					<dim>32</dim>
				</port>
				<port id="1" precision="FP32">
					<dim>1</dim>
					<dim>576</dim>
					<dim>1</dim>
					<dim>1</dim>
				</port>
			</input>
			<output>
				<port id="2" precision="FP32" names="499">
					<dim>1</dim>
					<dim>576</dim>
					<dim>32</dim>
					<dim>32</dim>
				</port>
			</output>
		</layer>
		<layer id="191" name="500" type="ReLU" version="opset1">
			<rt_info>
				<attribute name="fused_names" version="0" value="500"/>
			</rt_info>
			<input>
				<port id="0" precision="FP32">
					<dim>1</dim>
					<dim>576</dim>
					<dim>32</dim>
					<dim>32</dim>
				</port>
			</input>
			<output>
				<port id="1" precision="FP32" names="500">
					<dim>1</dim>
					<dim>576</dim>
					<dim>32</dim>
					<dim>32</dim>
				</port>
			</output>
		</layer>
		<layer id="192" name="Multiply_17252" type="Const" version="opset1">
			<data element_type="f32" shape="96, 576, 1, 1" offset="1916316" size="221184"/>
			<output>
				<port id="0" precision="FP32">
					<dim>96</dim>
					<dim>576</dim>
					<dim>1</dim>
					<dim>1</dim>
				</port>
			</output>
		</layer>
		<layer id="193" name="Multiply_16737" type="Convolution" version="opset1">
			<data strides="1, 1" dilations="1, 1" pads_begin="0, 0" pads_end="0, 0" auto_pad="explicit"/>
			<rt_info>
				<attribute name="fused_names" version="0" value="235, 236, 237, 238, 501, 502"/>
			</rt_info>
			<input>
				<port id="0" precision="FP32">
					<dim>1</dim>
					<dim>576</dim>
					<dim>32</dim>
					<dim>32</dim>
				</port>
				<port id="1" precision="FP32">
					<dim>96</dim>
					<dim>576</dim>
					<dim>1</dim>
					<dim>1</dim>
				</port>
			</input>
			<output>
				<port id="2" precision="FP32">
					<dim>1</dim>
					<dim>96</dim>
					<dim>32</dim>
					<dim>32</dim>
				</port>
			</output>
		</layer>
		<layer id="194" name="Constant_16742" type="Const" version="opset1">
			<data element_type="f32" shape="1, 96, 1, 1" offset="2137500" size="384"/>
			<output>
				<port id="0" precision="FP32">
					<dim>1</dim>
					<dim>96</dim>
					<dim>1</dim>
					<dim>1</dim>
				</port>
			</output>
		</layer>
		<layer id="195" name="502" type="Add" version="opset1">
			<data auto_broadcast="numpy"/>
			<rt_info>
				<attribute name="fused_names" version="0" value="235, 236, 237, 238, 502"/>
			</rt_info>
			<input>
				<port id="0" precision="FP32">
					<dim>1</dim>
					<dim>96</dim>
					<dim>32</dim>
					<dim>32</dim>
				</port>
				<port id="1" precision="FP32">
					<dim>1</dim>
					<dim>96</dim>
					<dim>1</dim>
					<dim>1</dim>
				</port>
			</input>
			<output>
				<port id="2" precision="FP32" names="502">
					<dim>1</dim>
					<dim>96</dim>
					<dim>32</dim>
					<dim>32</dim>
				</port>
			</output>
		</layer>
		<layer id="196" name="503" type="Add" version="opset1">
			<data auto_broadcast="numpy"/>
			<rt_info>
				<attribute name="fused_names" version="0" value="503"/>
			</rt_info>
			<input>
				<port id="0" precision="FP32">
					<dim>1</dim>
					<dim>96</dim>
					<dim>32</dim>
					<dim>32</dim>
				</port>
				<port id="1" precision="FP32">
					<dim>1</dim>
					<dim>96</dim>
					<dim>32</dim>
					<dim>32</dim>
				</port>
			</input>
			<output>
				<port id="2" precision="FP32" names="503">
					<dim>1</dim>
					<dim>96</dim>
					<dim>32</dim>
					<dim>32</dim>
				</port>
			</output>
		</layer>
		<layer id="197" name="Multiply_17261" type="Const" version="opset1">
			<data element_type="f32" shape="576, 96, 1, 1" offset="2137884" size="221184"/>
			<output>
				<port id="0" precision="FP32">
					<dim>576</dim>
					<dim>96</dim>
					<dim>1</dim>
					<dim>1</dim>
				</port>
			</output>
		</layer>
		<layer id="198" name="Multiply_16744" type="Convolution" version="opset1">
			<data strides="1, 1" dilations="1, 1" pads_begin="0, 0" pads_end="0, 0" auto_pad="explicit"/>
			<rt_info>
				<attribute name="fused_names" version="0" value="241, 242, 243, 244, 504, 505"/>
			</rt_info>
			<input>
				<port id="0" precision="FP32">
					<dim>1</dim>
					<dim>96</dim>
					<dim>32</dim>
					<dim>32</dim>
				</port>
				<port id="1" precision="FP32">
					<dim>576</dim>
					<dim>96</dim>
					<dim>1</dim>
					<dim>1</dim>
				</port>
			</input>
			<output>
				<port id="2" precision="FP32">
					<dim>1</dim>
					<dim>576</dim>
					<dim>32</dim>
					<dim>32</dim>
				</port>
			</output>
		</layer>
		<layer id="199" name="Constant_16749" type="Const" version="opset1">
			<data element_type="f32" shape="1, 576, 1, 1" offset="2359068" size="2304"/>
			<output>
				<port id="0" precision="FP32">
					<dim>1</dim>
					<dim>576</dim>
					<dim>1</dim>
					<dim>1</dim>
				</port>
			</output>
		</layer>
		<layer id="200" name="505" type="Add" version="opset1">
			<data auto_broadcast="numpy"/>
			<rt_info>
				<attribute name="fused_names" version="0" value="241, 242, 243, 244, 505"/>
			</rt_info>
			<input>
				<port id="0" precision="FP32">
					<dim>1</dim>
					<dim>576</dim>
					<dim>32</dim>
					<dim>32</dim>
				</port>
				<port id="1" precision="FP32">
					<dim>1</dim>
					<dim>576</dim>
					<dim>1</dim>
					<dim>1</dim>
				</port>
			</input>
			<output>
				<port id="2" precision="FP32" names="505">
					<dim>1</dim>
					<dim>576</dim>
					<dim>32</dim>
					<dim>32</dim>
				</port>
			</output>
		</layer>
		<layer id="201" name="506" type="ReLU" version="opset1">
			<rt_info>
				<attribute name="fused_names" version="0" value="506"/>
			</rt_info>
			<input>
				<port id="0" precision="FP32">
					<dim>1</dim>
					<dim>576</dim>
					<dim>32</dim>
					<dim>32</dim>
				</port>
			</input>
			<output>
				<port id="1" precision="FP32" names="506">
					<dim>1</dim>
					<dim>576</dim>
					<dim>32</dim>
					<dim>32</dim>
				</port>
			</output>
		</layer>
		<layer id="202" name="Multiply_17270" type="Const" version="opset1">
			<data element_type="f32" shape="576, 1, 1, 3, 3" offset="2361372" size="20736"/>
			<output>
				<port id="0" precision="FP32">
					<dim>576</dim>
					<dim>1</dim>
					<dim>1</dim>
					<dim>3</dim>
					<dim>3</dim>
				</port>
			</output>
		</layer>
		<layer id="203" name="Multiply_16754" type="GroupConvolution" version="opset1">
			<data strides="1, 1" pads_begin="1, 1" pads_end="1, 1" dilations="1, 1" auto_pad="explicit"/>
			<rt_info>
				<attribute name="fused_names" version="0" value="338, 339, 340, 341, 554, 555, Concat_2182, Reshape_2183"/>
			</rt_info>
			<input>
				<port id="0" precision="FP32">
					<dim>1</dim>
					<dim>576</dim>
					<dim>32</dim>
					<dim>32</dim>
				</port>
				<port id="1" precision="FP32">
					<dim>576</dim>
					<dim>1</dim>
					<dim>1</dim>
					<dim>3</dim>
					<dim>3</dim>
				</port>
			</input>
			<output>
				<port id="2" precision="FP32">
					<dim>1</dim>
					<dim>576</dim>
					<dim>32</dim>
					<dim>32</dim>
				</port>
			</output>
		</layer>
		<layer id="204" name="Constant_16759" type="Const" version="opset1">
			<data element_type="f32" shape="1, 576, 1, 1" offset="2382108" size="2304"/>
			<output>
				<port id="0" precision="FP32">
					<dim>1</dim>
					<dim>576</dim>
					<dim>1</dim>
					<dim>1</dim>
				</port>
			</output>
		</layer>
		<layer id="205" name="555" type="Add" version="opset1">
			<data auto_broadcast="numpy"/>
			<rt_info>
				<attribute name="fused_names" version="0" value="338, 339, 340, 341, 554, 555, Concat_2182, Reshape_2183"/>
			</rt_info>
			<input>
				<port id="0" precision="FP32">
					<dim>1</dim>
					<dim>576</dim>
					<dim>32</dim>
					<dim>32</dim>
				</port>
				<port id="1" precision="FP32">
					<dim>1</dim>
					<dim>576</dim>
					<dim>1</dim>
					<dim>1</dim>
				</port>
			</input>
			<output>
				<port id="2" precision="FP32" names="555">
					<dim>1</dim>
					<dim>576</dim>
					<dim>32</dim>
					<dim>32</dim>
				</port>
			</output>
		</layer>
		<layer id="206" name="556" type="ReLU" version="opset1">
			<rt_info>
				<attribute name="fused_names" version="0" value="556"/>
			</rt_info>
			<input>
				<port id="0" precision="FP32">
					<dim>1</dim>
					<dim>576</dim>
					<dim>32</dim>
					<dim>32</dim>
				</port>
			</input>
			<output>
				<port id="1" precision="FP32" names="556">
					<dim>1</dim>
					<dim>576</dim>
					<dim>32</dim>
					<dim>32</dim>
				</port>
			</output>
		</layer>
		<layer id="207" name="343" type="Const" version="opset1">
			<data element_type="f32" shape="36, 576, 1, 1" offset="2384412" size="82944"/>
			<rt_info>
				<attribute name="fused_names" version="0" value="343"/>
			</rt_info>
			<output>
				<port id="0" precision="FP32" names="343">
					<dim>36</dim>
					<dim>576</dim>
					<dim>1</dim>
					<dim>1</dim>
				</port>
			</output>
		</layer>
		<layer id="208" name="Convolution_2213" type="Convolution" version="opset1">
			<data strides="1, 1" dilations="1, 1" pads_begin="0, 0" pads_end="0, 0" auto_pad="explicit"/>
			<rt_info>
				<attribute name="fused_names" version="0" value="Convolution_2213"/>
			</rt_info>
			<input>
				<port id="0" precision="FP32">
					<dim>1</dim>
					<dim>576</dim>
					<dim>32</dim>
					<dim>32</dim>
				</port>
				<port id="1" precision="FP32">
					<dim>36</dim>
					<dim>576</dim>
					<dim>1</dim>
					<dim>1</dim>
				</port>
			</input>
			<output>
				<port id="2" precision="FP32">
					<dim>1</dim>
					<dim>36</dim>
					<dim>32</dim>
					<dim>32</dim>
				</port>
			</output>
		</layer>
		<layer id="209" name="Reshape_2233" type="Const" version="opset1">
			<data element_type="f32" shape="1, 36, 1, 1" offset="2467356" size="144"/>
			<output>
				<port id="0" precision="FP32">
					<dim>1</dim>
					<dim>36</dim>
					<dim>1</dim>
					<dim>1</dim>
				</port>
			</output>
		</layer>
		<layer id="210" name="557" type="Add" version="opset1">
			<data auto_broadcast="numpy"/>
			<rt_info>
				<attribute name="fused_names" version="0" value="557, Concat_2232, Reshape_2233"/>
			</rt_info>
			<input>
				<port id="0" precision="FP32">
					<dim>1</dim>
					<dim>36</dim>
					<dim>32</dim>
					<dim>32</dim>
				</port>
				<port id="1" precision="FP32">
					<dim>1</dim>
					<dim>36</dim>
					<dim>1</dim>
					<dim>1</dim>
				</port>
			</input>
			<output>
				<port id="2" precision="FP32" names="557">
					<dim>1</dim>
					<dim>36</dim>
					<dim>32</dim>
					<dim>32</dim>
				</port>
			</output>
		</layer>
		<layer id="211" name="Constant_3329" type="Const" version="opset1">
			<data element_type="i64" shape="4" offset="2467500" size="32"/>
			<rt_info>
				<attribute name="fused_names" version="0" value="Constant_3329"/>
			</rt_info>
			<output>
				<port id="0" precision="I64">
					<dim>4</dim>
				</port>
			</output>
		</layer>
		<layer id="212" name="625" type="Transpose" version="opset1">
			<rt_info>
				<attribute name="fused_names" version="0" value="625"/>
			</rt_info>
			<input>
				<port id="0" precision="FP32">
					<dim>1</dim>
					<dim>36</dim>
					<dim>32</dim>
					<dim>32</dim>
				</port>
				<port id="1" precision="I64">
					<dim>4</dim>
				</port>
			</input>
			<output>
				<port id="2" precision="FP32" names="625">
					<dim>1</dim>
					<dim>32</dim>
					<dim>32</dim>
					<dim>36</dim>
				</port>
			</output>
		</layer>
		<layer id="213" name="627" type="ShapeOf" version="opset3">
			<data output_type="i64"/>
			<rt_info>
				<attribute name="fused_names" version="0" value="627"/>
			</rt_info>
			<input>
				<port id="0" precision="FP32">
					<dim>1</dim>
					<dim>36</dim>
					<dim>32</dim>
					<dim>32</dim>
				</port>
			</input>
			<output>
				<port id="1" precision="I64" names="627">
					<dim>4</dim>
				</port>
			</output>
		</layer>
		<layer id="214" name="Constant_8009" type="Const" version="opset1">
			<data element_type="i64" shape="1" offset="2467532" size="8"/>
			<rt_info>
				<attribute name="fused_names" version="0" value="626, 628, 630, Constant_3333, Constant_3336"/>
			</rt_info>
			<output>
				<port id="0" precision="I64">
					<dim>1</dim>
				</port>
			</output>
		</layer>
		<layer id="215" name="Constant_3333" type="Const" version="opset1">
			<data element_type="i64" shape="" offset="2467532" size="8"/>
			<rt_info>
				<attribute name="fused_names" version="0" value="Constant_3333"/>
			</rt_info>
			<output>
				<port id="0" precision="I64"/>
			</output>
		</layer>
		<layer id="216" name="628" type="Gather" version="opset8">
			<data batch_dims="0"/>
			<rt_info>
				<attribute name="fused_names" version="0" value="626, 628, 630, Constant_3333, Constant_3336"/>
			</rt_info>
			<input>
				<port id="0" precision="I64">
					<dim>4</dim>
				</port>
				<port id="1" precision="I64">
					<dim>1</dim>
				</port>
				<port id="2" precision="I64"/>
			</input>
			<output>
				<port id="3" precision="I64" names="630">
					<dim>1</dim>
				</port>
			</output>
		</layer>
		<layer id="217" name="631" type="Const" version="opset1">
			<data element_type="i64" shape="1" offset="2467540" size="8"/>
			<output>
				<port id="0" precision="I64" names="631">
					<dim>1</dim>
				</port>
			</output>
		</layer>
		<layer id="218" name="632" type="Concat" version="opset1">
			<data axis="0"/>
			<rt_info>
				<attribute name="fused_names" version="0" value="631, 632"/>
			</rt_info>
			<input>
				<port id="0" precision="I64">
					<dim>1</dim>
				</port>
				<port id="1" precision="I64">
					<dim>1</dim>
				</port>
			</input>
			<output>
				<port id="2" precision="I64" names="632">
					<dim>2</dim>
				</port>
			</output>
		</layer>
		<layer id="219" name="633" type="Reshape" version="opset1">
			<data special_zero="true"/>
			<rt_info>
				<attribute name="fused_names" version="0" value="633"/>
			</rt_info>
			<input>
				<port id="0" precision="FP32">
					<dim>1</dim>
					<dim>32</dim>
					<dim>32</dim>
					<dim>36</dim>
				</port>
				<port id="1" precision="I64">
					<dim>2</dim>
				</port>
			</input>
			<output>
				<port id="2" precision="FP32" names="633">
					<dim>1</dim>
					<dim>36864</dim>
				</port>
			</output>
		</layer>
		<layer id="220" name="Multiply_17278" type="Const" version="opset1">
			<data element_type="f32" shape="576, 1, 1, 3, 3" offset="2467548" size="20736"/>
			<output>
				<port id="0" precision="FP32">
					<dim>576</dim>
					<dim>1</dim>
					<dim>1</dim>
					<dim>3</dim>
					<dim>3</dim>
				</port>
			</output>
		</layer>
		<layer id="221" name="Multiply_16761" type="GroupConvolution" version="opset1">
			<data strides="2, 2" pads_begin="1, 1" pads_end="1, 1" dilations="1, 1" auto_pad="explicit"/>
			<rt_info>
				<attribute name="fused_names" version="0" value="247, 248, 249, 250, 508"/>
			</rt_info>
			<input>
				<port id="0" precision="FP32">
					<dim>1</dim>
					<dim>576</dim>
					<dim>32</dim>
					<dim>32</dim>
				</port>
				<port id="1" precision="FP32">
					<dim>576</dim>
					<dim>1</dim>
					<dim>1</dim>
					<dim>3</dim>
					<dim>3</dim>
				</port>
			</input>
			<output>
				<port id="2" precision="FP32" names="507">
					<dim>1</dim>
					<dim>576</dim>
					<dim>16</dim>
					<dim>16</dim>
				</port>
			</output>
		</layer>
		<layer id="222" name="Constant_16766" type="Const" version="opset1">
			<data element_type="f32" shape="1, 576, 1, 1" offset="2488284" size="2304"/>
			<output>
				<port id="0" precision="FP32">
					<dim>1</dim>
					<dim>576</dim>
					<dim>1</dim>
					<dim>1</dim>
				</port>
			</output>
		</layer>
		<layer id="223" name="508" type="Add" version="opset1">
			<data auto_broadcast="numpy"/>
			<rt_info>
				<attribute name="fused_names" version="0" value="247, 248, 249, 250, 508"/>
			</rt_info>
			<input>
				<port id="0" precision="FP32">
					<dim>1</dim>
					<dim>576</dim>
					<dim>16</dim>
					<dim>16</dim>
				</port>
				<port id="1" precision="FP32">
					<dim>1</dim>
					<dim>576</dim>
					<dim>1</dim>
					<dim>1</dim>
				</port>
			</input>
			<output>
				<port id="2" precision="FP32" names="508">
					<dim>1</dim>
					<dim>576</dim>
					<dim>16</dim>
					<dim>16</dim>
				</port>
			</output>
		</layer>
		<layer id="224" name="509" type="ReLU" version="opset1">
			<rt_info>
				<attribute name="fused_names" version="0" value="509"/>
			</rt_info>
			<input>
				<port id="0" precision="FP32">
					<dim>1</dim>
					<dim>576</dim>
					<dim>16</dim>
					<dim>16</dim>
				</port>
			</input>
			<output>
				<port id="1" precision="FP32" names="509">
					<dim>1</dim>
					<dim>576</dim>
					<dim>16</dim>
					<dim>16</dim>
				</port>
			</output>
		</layer>
		<layer id="225" name="Multiply_17286" type="Const" version="opset1">
			<data element_type="f32" shape="160, 576, 1, 1" offset="2490588" size="368640"/>
			<output>
				<port id="0" precision="FP32">
					<dim>160</dim>
					<dim>576</dim>
					<dim>1</dim>
					<dim>1</dim>
				</port>
			</output>
		</layer>
		<layer id="226" name="Multiply_16768" type="Convolution" version="opset1">
			<data strides="1, 1" dilations="1, 1" pads_begin="0, 0" pads_end="0, 0" auto_pad="explicit"/>
			<rt_info>
				<attribute name="fused_names" version="0" value="253, 254, 255, 256, 510, 511"/>
			</rt_info>
			<input>
				<port id="0" precision="FP32">
					<dim>1</dim>
					<dim>576</dim>
					<dim>16</dim>
					<dim>16</dim>
				</port>
				<port id="1" precision="FP32">
					<dim>160</dim>
					<dim>576</dim>
					<dim>1</dim>
					<dim>1</dim>
				</port>
			</input>
			<output>
				<port id="2" precision="FP32">
					<dim>1</dim>
					<dim>160</dim>
					<dim>16</dim>
					<dim>16</dim>
				</port>
			</output>
		</layer>
		<layer id="227" name="Constant_16773" type="Const" version="opset1">
			<data element_type="f32" shape="1, 160, 1, 1" offset="2859228" size="640"/>
			<output>
				<port id="0" precision="FP32">
					<dim>1</dim>
					<dim>160</dim>
					<dim>1</dim>
					<dim>1</dim>
				</port>
			</output>
		</layer>
		<layer id="228" name="511" type="Add" version="opset1">
			<data auto_broadcast="numpy"/>
			<rt_info>
				<attribute name="fused_names" version="0" value="253, 254, 255, 256, 511"/>
			</rt_info>
			<input>
				<port id="0" precision="FP32">
					<dim>1</dim>
					<dim>160</dim>
					<dim>16</dim>
					<dim>16</dim>
				</port>
				<port id="1" precision="FP32">
					<dim>1</dim>
					<dim>160</dim>
					<dim>1</dim>
					<dim>1</dim>
				</port>
			</input>
			<output>
				<port id="2" precision="FP32" names="511">
					<dim>1</dim>
					<dim>160</dim>
					<dim>16</dim>
					<dim>16</dim>
				</port>
			</output>
		</layer>
		<layer id="229" name="Multiply_17295" type="Const" version="opset1">
			<data element_type="f32" shape="960, 160, 1, 1" offset="2859868" size="614400"/>
			<output>
				<port id="0" precision="FP32">
					<dim>960</dim>
					<dim>160</dim>
					<dim>1</dim>
					<dim>1</dim>
				</port>
			</output>
		</layer>
		<layer id="230" name="Multiply_16775" type="Convolution" version="opset1">
			<data strides="1, 1" dilations="1, 1" pads_begin="0, 0" pads_end="0, 0" auto_pad="explicit"/>
			<rt_info>
				<attribute name="fused_names" version="0" value="259, 260, 261, 262, 512, 513"/>
			</rt_info>
			<input>
				<port id="0" precision="FP32">
					<dim>1</dim>
					<dim>160</dim>
					<dim>16</dim>
					<dim>16</dim>
				</port>
				<port id="1" precision="FP32">
					<dim>960</dim>
					<dim>160</dim>
					<dim>1</dim>
					<dim>1</dim>
				</port>
			</input>
			<output>
				<port id="2" precision="FP32">
					<dim>1</dim>
					<dim>960</dim>
					<dim>16</dim>
					<dim>16</dim>
				</port>
			</output>
		</layer>
		<layer id="231" name="Constant_16780" type="Const" version="opset1">
			<data element_type="f32" shape="1, 960, 1, 1" offset="3474268" size="3840"/>
			<output>
				<port id="0" precision="FP32">
					<dim>1</dim>
					<dim>960</dim>
					<dim>1</dim>
					<dim>1</dim>
				</port>
			</output>
		</layer>
		<layer id="232" name="513" type="Add" version="opset1">
			<data auto_broadcast="numpy"/>
			<rt_info>
				<attribute name="fused_names" version="0" value="259, 260, 261, 262, 513"/>
			</rt_info>
			<input>
				<port id="0" precision="FP32">
					<dim>1</dim>
					<dim>960</dim>
					<dim>16</dim>
					<dim>16</dim>
				</port>
				<port id="1" precision="FP32">
					<dim>1</dim>
					<dim>960</dim>
					<dim>1</dim>
					<dim>1</dim>
				</port>
			</input>
			<output>
				<port id="2" precision="FP32" names="513">
					<dim>1</dim>
					<dim>960</dim>
					<dim>16</dim>
					<dim>16</dim>
				</port>
			</output>
		</layer>
		<layer id="233" name="514" type="ReLU" version="opset1">
			<rt_info>
				<attribute name="fused_names" version="0" value="514"/>
			</rt_info>
			<input>
				<port id="0" precision="FP32">
					<dim>1</dim>
					<dim>960</dim>
					<dim>16</dim>
					<dim>16</dim>
				</port>
			</input>
			<output>
				<port id="1" precision="FP32" names="514">
					<dim>1</dim>
					<dim>960</dim>
					<dim>16</dim>
					<dim>16</dim>
				</port>
			</output>
		</layer>
		<layer id="234" name="Multiply_17304" type="Const" version="opset1">
			<data element_type="f32" shape="960, 1, 1, 3, 3" offset="3478108" size="34560"/>
			<output>
				<port id="0" precision="FP32">
					<dim>960</dim>
					<dim>1</dim>
					<dim>1</dim>
					<dim>3</dim>
					<dim>3</dim>
				</port>
			</output>
		</layer>
		<layer id="235" name="Multiply_16782" type="GroupConvolution" version="opset1">
			<data strides="1, 1" pads_begin="1, 1" pads_end="1, 1" dilations="1, 1" auto_pad="explicit"/>
			<rt_info>
				<attribute name="fused_names" version="0" value="265, 266, 267, 268, 516"/>
			</rt_info>
			<input>
				<port id="0" precision="FP32">
					<dim>1</dim>
					<dim>960</dim>
					<dim>16</dim>
					<dim>16</dim>
				</port>
				<port id="1" precision="FP32">
					<dim>960</dim>
					<dim>1</dim>
					<dim>1</dim>
					<dim>3</dim>
					<dim>3</dim>
				</port>
			</input>
			<output>
				<port id="2" precision="FP32" names="515">
					<dim>1</dim>
					<dim>960</dim>
					<dim>16</dim>
					<dim>16</dim>
				</port>
			</output>
		</layer>
		<layer id="236" name="Constant_16787" type="Const" version="opset1">
			<data element_type="f32" shape="1, 960, 1, 1" offset="3512668" size="3840"/>
			<output>
				<port id="0" precision="FP32">
					<dim>1</dim>
					<dim>960</dim>
					<dim>1</dim>
					<dim>1</dim>
				</port>
			</output>
		</layer>
		<layer id="237" name="516" type="Add" version="opset1">
			<data auto_broadcast="numpy"/>
			<rt_info>
				<attribute name="fused_names" version="0" value="265, 266, 267, 268, 516"/>
			</rt_info>
			<input>
				<port id="0" precision="FP32">
					<dim>1</dim>
					<dim>960</dim>
					<dim>16</dim>
					<dim>16</dim>
				</port>
				<port id="1" precision="FP32">
					<dim>1</dim>
					<dim>960</dim>
					<dim>1</dim>
					<dim>1</dim>
				</port>
			</input>
			<output>
				<port id="2" precision="FP32" names="516">
					<dim>1</dim>
					<dim>960</dim>
					<dim>16</dim>
					<dim>16</dim>
				</port>
			</output>
		</layer>
		<layer id="238" name="517" type="ReLU" version="opset1">
			<rt_info>
				<attribute name="fused_names" version="0" value="517"/>
			</rt_info>
			<input>
				<port id="0" precision="FP32">
					<dim>1</dim>
					<dim>960</dim>
					<dim>16</dim>
					<dim>16</dim>
				</port>
			</input>
			<output>
				<port id="1" precision="FP32" names="517">
					<dim>1</dim>
					<dim>960</dim>
					<dim>16</dim>
					<dim>16</dim>
				</port>
			</output>
		</layer>
		<layer id="239" name="Multiply_17312" type="Const" version="opset1">
			<data element_type="f32" shape="160, 960, 1, 1" offset="3516508" size="614400"/>
			<output>
				<port id="0" precision="FP32">
					<dim>160</dim>
					<dim>960</dim>
					<dim>1</dim>
					<dim>1</dim>
				</port>
			</output>
		</layer>
		<layer id="240" name="Multiply_16789" type="Convolution" version="opset1">
			<data strides="1, 1" dilations="1, 1" pads_begin="0, 0" pads_end="0, 0" auto_pad="explicit"/>
			<rt_info>
				<attribute name="fused_names" version="0" value="271, 272, 273, 274, 518, 519"/>
			</rt_info>
			<input>
				<port id="0" precision="FP32">
					<dim>1</dim>
					<dim>960</dim>
					<dim>16</dim>
					<dim>16</dim>
				</port>
				<port id="1" precision="FP32">
					<dim>160</dim>
					<dim>960</dim>
					<dim>1</dim>
					<dim>1</dim>
				</port>
			</input>
			<output>
				<port id="2" precision="FP32">
					<dim>1</dim>
					<dim>160</dim>
					<dim>16</dim>
					<dim>16</dim>
				</port>
			</output>
		</layer>
		<layer id="241" name="Constant_16794" type="Const" version="opset1">
			<data element_type="f32" shape="1, 160, 1, 1" offset="4130908" size="640"/>
			<output>
				<port id="0" precision="FP32">
					<dim>1</dim>
					<dim>160</dim>
					<dim>1</dim>
					<dim>1</dim>
				</port>
			</output>
		</layer>
		<layer id="242" name="519" type="Add" version="opset1">
			<data auto_broadcast="numpy"/>
			<rt_info>
				<attribute name="fused_names" version="0" value="271, 272, 273, 274, 519"/>
			</rt_info>
			<input>
				<port id="0" precision="FP32">
					<dim>1</dim>
					<dim>160</dim>
					<dim>16</dim>
					<dim>16</dim>
				</port>
				<port id="1" precision="FP32">
					<dim>1</dim>
					<dim>160</dim>
					<dim>1</dim>
					<dim>1</dim>
				</port>
			</input>
			<output>
				<port id="2" precision="FP32" names="519">
					<dim>1</dim>
					<dim>160</dim>
					<dim>16</dim>
					<dim>16</dim>
				</port>
			</output>
		</layer>
		<layer id="243" name="520" type="Add" version="opset1">
			<data auto_broadcast="numpy"/>
			<rt_info>
				<attribute name="fused_names" version="0" value="520"/>
			</rt_info>
			<input>
				<port id="0" precision="FP32">
					<dim>1</dim>
					<dim>160</dim>
					<dim>16</dim>
					<dim>16</dim>
				</port>
				<port id="1" precision="FP32">
					<dim>1</dim>
					<dim>160</dim>
					<dim>16</dim>
					<dim>16</dim>
				</port>
			</input>
			<output>
				<port id="2" precision="FP32" names="520">
					<dim>1</dim>
					<dim>160</dim>
					<dim>16</dim>
					<dim>16</dim>
				</port>
			</output>
		</layer>
		<layer id="244" name="Multiply_17321" type="Const" version="opset1">
			<data element_type="f32" shape="960, 160, 1, 1" offset="4131548" size="614400"/>
			<output>
				<port id="0" precision="FP32">
					<dim>960</dim>
					<dim>160</dim>
					<dim>1</dim>
					<dim>1</dim>
				</port>
			</output>
		</layer>
		<layer id="245" name="Multiply_16796" type="Convolution" version="opset1">
			<data strides="1, 1" dilations="1, 1" pads_begin="0, 0" pads_end="0, 0" auto_pad="explicit"/>
			<rt_info>
				<attribute name="fused_names" version="0" value="277, 278, 279, 280, 521, 522"/>
			</rt_info>
			<input>
				<port id="0" precision="FP32">
					<dim>1</dim>
					<dim>160</dim>
					<dim>16</dim>
					<dim>16</dim>
				</port>
				<port id="1" precision="FP32">
					<dim>960</dim>
					<dim>160</dim>
					<dim>1</dim>
					<dim>1</dim>
				</port>
			</input>
			<output>
				<port id="2" precision="FP32">
					<dim>1</dim>
					<dim>960</dim>
					<dim>16</dim>
					<dim>16</dim>
				</port>
			</output>
		</layer>
		<layer id="246" name="Constant_16801" type="Const" version="opset1">
			<data element_type="f32" shape="1, 960, 1, 1" offset="4745948" size="3840"/>
			<output>
				<port id="0" precision="FP32">
					<dim>1</dim>
					<dim>960</dim>
					<dim>1</dim>
					<dim>1</dim>
				</port>
			</output>
		</layer>
		<layer id="247" name="522" type="Add" version="opset1">
			<data auto_broadcast="numpy"/>
			<rt_info>
				<attribute name="fused_names" version="0" value="277, 278, 279, 280, 522"/>
			</rt_info>
			<input>
				<port id="0" precision="FP32">
					<dim>1</dim>
					<dim>960</dim>
					<dim>16</dim>
					<dim>16</dim>
				</port>
				<port id="1" precision="FP32">
					<dim>1</dim>
					<dim>960</dim>
					<dim>1</dim>
					<dim>1</dim>
				</port>
			</input>
			<output>
				<port id="2" precision="FP32" names="522">
					<dim>1</dim>
					<dim>960</dim>
					<dim>16</dim>
					<dim>16</dim>
				</port>
			</output>
		</layer>
		<layer id="248" name="523" type="ReLU" version="opset1">
			<rt_info>
				<attribute name="fused_names" version="0" value="523"/>
			</rt_info>
			<input>
				<port id="0" precision="FP32">
					<dim>1</dim>
					<dim>960</dim>
					<dim>16</dim>
					<dim>16</dim>
				</port>
			</input>
			<output>
				<port id="1" precision="FP32" names="523">
					<dim>1</dim>
					<dim>960</dim>
					<dim>16</dim>
					<dim>16</dim>
				</port>
			</output>
		</layer>
		<layer id="249" name="Multiply_17330" type="Const" version="opset1">
			<data element_type="f32" shape="960, 1, 1, 3, 3" offset="4749788" size="34560"/>
			<output>
				<port id="0" precision="FP32">
					<dim>960</dim>
					<dim>1</dim>
					<dim>1</dim>
					<dim>3</dim>
					<dim>3</dim>
				</port>
			</output>
		</layer>
		<layer id="250" name="Multiply_16803" type="GroupConvolution" version="opset1">
			<data strides="1, 1" pads_begin="1, 1" pads_end="1, 1" dilations="1, 1" auto_pad="explicit"/>
			<rt_info>
				<attribute name="fused_names" version="0" value="283, 284, 285, 286, 525"/>
			</rt_info>
			<input>
				<port id="0" precision="FP32">
					<dim>1</dim>
					<dim>960</dim>
					<dim>16</dim>
					<dim>16</dim>
				</port>
				<port id="1" precision="FP32">
					<dim>960</dim>
					<dim>1</dim>
					<dim>1</dim>
					<dim>3</dim>
					<dim>3</dim>
				</port>
			</input>
			<output>
				<port id="2" precision="FP32" names="524">
					<dim>1</dim>
					<dim>960</dim>
					<dim>16</dim>
					<dim>16</dim>
				</port>
			</output>
		</layer>
		<layer id="251" name="Constant_16808" type="Const" version="opset1">
			<data element_type="f32" shape="1, 960, 1, 1" offset="4784348" size="3840"/>
			<output>
				<port id="0" precision="FP32">
					<dim>1</dim>
					<dim>960</dim>
					<dim>1</dim>
					<dim>1</dim>
				</port>
			</output>
		</layer>
		<layer id="252" name="525" type="Add" version="opset1">
			<data auto_broadcast="numpy"/>
			<rt_info>
				<attribute name="fused_names" version="0" value="283, 284, 285, 286, 525"/>
			</rt_info>
			<input>
				<port id="0" precision="FP32">
					<dim>1</dim>
					<dim>960</dim>
					<dim>16</dim>
					<dim>16</dim>
				</port>
				<port id="1" precision="FP32">
					<dim>1</dim>
					<dim>960</dim>
					<dim>1</dim>
					<dim>1</dim>
				</port>
			</input>
			<output>
				<port id="2" precision="FP32" names="525">
					<dim>1</dim>
					<dim>960</dim>
					<dim>16</dim>
					<dim>16</dim>
				</port>
			</output>
		</layer>
		<layer id="253" name="526" type="ReLU" version="opset1">
			<rt_info>
				<attribute name="fused_names" version="0" value="526"/>
			</rt_info>
			<input>
				<port id="0" precision="FP32">
					<dim>1</dim>
					<dim>960</dim>
					<dim>16</dim>
					<dim>16</dim>
				</port>
			</input>
			<output>
				<port id="1" precision="FP32" names="526">
					<dim>1</dim>
					<dim>960</dim>
					<dim>16</dim>
					<dim>16</dim>
				</port>
			</output>
		</layer>
		<layer id="254" name="Multiply_17338" type="Const" version="opset1">
			<data element_type="f32" shape="160, 960, 1, 1" offset="4788188" size="614400"/>
			<output>
				<port id="0" precision="FP32">
					<dim>160</dim>
					<dim>960</dim>
					<dim>1</dim>
					<dim>1</dim>
				</port>
			</output>
		</layer>
		<layer id="255" name="Multiply_16810" type="Convolution" version="opset1">
			<data strides="1, 1" dilations="1, 1" pads_begin="0, 0" pads_end="0, 0" auto_pad="explicit"/>
			<rt_info>
				<attribute name="fused_names" version="0" value="289, 290, 291, 292, 527, 528"/>
			</rt_info>
			<input>
				<port id="0" precision="FP32">
					<dim>1</dim>
					<dim>960</dim>
					<dim>16</dim>
					<dim>16</dim>
				</port>
				<port id="1" precision="FP32">
					<dim>160</dim>
					<dim>960</dim>
					<dim>1</dim>
					<dim>1</dim>
				</port>
			</input>
			<output>
				<port id="2" precision="FP32">
					<dim>1</dim>
					<dim>160</dim>
					<dim>16</dim>
					<dim>16</dim>
				</port>
			</output>
		</layer>
		<layer id="256" name="Constant_16815" type="Const" version="opset1">
			<data element_type="f32" shape="1, 160, 1, 1" offset="5402588" size="640"/>
			<output>
				<port id="0" precision="FP32">
					<dim>1</dim>
					<dim>160</dim>
					<dim>1</dim>
					<dim>1</dim>
				</port>
			</output>
		</layer>
		<layer id="257" name="528" type="Add" version="opset1">
			<data auto_broadcast="numpy"/>
			<rt_info>
				<attribute name="fused_names" version="0" value="289, 290, 291, 292, 528"/>
			</rt_info>
			<input>
				<port id="0" precision="FP32">
					<dim>1</dim>
					<dim>160</dim>
					<dim>16</dim>
					<dim>16</dim>
				</port>
				<port id="1" precision="FP32">
					<dim>1</dim>
					<dim>160</dim>
					<dim>1</dim>
					<dim>1</dim>
				</port>
			</input>
			<output>
				<port id="2" precision="FP32" names="528">
					<dim>1</dim>
					<dim>160</dim>
					<dim>16</dim>
					<dim>16</dim>
				</port>
			</output>
		</layer>
		<layer id="258" name="529" type="Add" version="opset1">
			<data auto_broadcast="numpy"/>
			<rt_info>
				<attribute name="fused_names" version="0" value="529"/>
			</rt_info>
			<input>
				<port id="0" precision="FP32">
					<dim>1</dim>
					<dim>160</dim>
					<dim>16</dim>
					<dim>16</dim>
				</port>
				<port id="1" precision="FP32">
					<dim>1</dim>
					<dim>160</dim>
					<dim>16</dim>
					<dim>16</dim>
				</port>
			</input>
			<output>
				<port id="2" precision="FP32" names="529">
					<dim>1</dim>
					<dim>160</dim>
					<dim>16</dim>
					<dim>16</dim>
				</port>
			</output>
		</layer>
		<layer id="259" name="Multiply_17347" type="Const" version="opset1">
			<data element_type="f32" shape="960, 160, 1, 1" offset="5403228" size="614400"/>
			<output>
				<port id="0" precision="FP32">
					<dim>960</dim>
					<dim>160</dim>
					<dim>1</dim>
					<dim>1</dim>
				</port>
			</output>
		</layer>
		<layer id="260" name="Multiply_16817" type="Convolution" version="opset1">
			<data strides="1, 1" dilations="1, 1" pads_begin="0, 0" pads_end="0, 0" auto_pad="explicit"/>
			<rt_info>
				<attribute name="fused_names" version="0" value="295, 296, 297, 298, 530, 531"/>
			</rt_info>
			<input>
				<port id="0" precision="FP32">
					<dim>1</dim>
					<dim>160</dim>
					<dim>16</dim>
					<dim>16</dim>
				</port>
				<port id="1" precision="FP32">
					<dim>960</dim>
					<dim>160</dim>
					<dim>1</dim>
					<dim>1</dim>
				</port>
			</input>
			<output>
				<port id="2" precision="FP32">
					<dim>1</dim>
					<dim>960</dim>
					<dim>16</dim>
					<dim>16</dim>
				</port>
			</output>
		</layer>
		<layer id="261" name="Constant_16822" type="Const" version="opset1">
			<data element_type="f32" shape="1, 960, 1, 1" offset="6017628" size="3840"/>
			<output>
				<port id="0" precision="FP32">
					<dim>1</dim>
					<dim>960</dim>
					<dim>1</dim>
					<dim>1</dim>
				</port>
			</output>
		</layer>
		<layer id="262" name="531" type="Add" version="opset1">
			<data auto_broadcast="numpy"/>
			<rt_info>
				<attribute name="fused_names" version="0" value="295, 296, 297, 298, 531"/>
			</rt_info>
			<input>
				<port id="0" precision="FP32">
					<dim>1</dim>
					<dim>960</dim>
					<dim>16</dim>
					<dim>16</dim>
				</port>
				<port id="1" precision="FP32">
					<dim>1</dim>
					<dim>960</dim>
					<dim>1</dim>
					<dim>1</dim>
				</port>
			</input>
			<output>
				<port id="2" precision="FP32" names="531">
					<dim>1</dim>
					<dim>960</dim>
					<dim>16</dim>
					<dim>16</dim>
				</port>
			</output>
		</layer>
		<layer id="263" name="532" type="ReLU" version="opset1">
			<rt_info>
				<attribute name="fused_names" version="0" value="532"/>
			</rt_info>
			<input>
				<port id="0" precision="FP32">
					<dim>1</dim>
					<dim>960</dim>
					<dim>16</dim>
					<dim>16</dim>
				</port>
			</input>
			<output>
				<port id="1" precision="FP32" names="532">
					<dim>1</dim>
					<dim>960</dim>
					<dim>16</dim>
					<dim>16</dim>
				</port>
			</output>
		</layer>
		<layer id="264" name="Multiply_17356" type="Const" version="opset1">
			<data element_type="f32" shape="960, 1, 1, 3, 3" offset="6021468" size="34560"/>
			<output>
				<port id="0" precision="FP32">
					<dim>960</dim>
					<dim>1</dim>
					<dim>1</dim>
					<dim>3</dim>
					<dim>3</dim>
				</port>
			</output>
		</layer>
		<layer id="265" name="Multiply_16824" type="GroupConvolution" version="opset1">
			<data strides="1, 1" pads_begin="1, 1" pads_end="1, 1" dilations="1, 1" auto_pad="explicit"/>
			<rt_info>
				<attribute name="fused_names" version="0" value="301, 302, 303, 304, 534"/>
			</rt_info>
			<input>
				<port id="0" precision="FP32">
					<dim>1</dim>
					<dim>960</dim>
					<dim>16</dim>
					<dim>16</dim>
				</port>
				<port id="1" precision="FP32">
					<dim>960</dim>
					<dim>1</dim>
					<dim>1</dim>
					<dim>3</dim>
					<dim>3</dim>
				</port>
			</input>
			<output>
				<port id="2" precision="FP32" names="533">
					<dim>1</dim>
					<dim>960</dim>
					<dim>16</dim>
					<dim>16</dim>
				</port>
			</output>
		</layer>
		<layer id="266" name="Constant_16829" type="Const" version="opset1">
			<data element_type="f32" shape="1, 960, 1, 1" offset="6056028" size="3840"/>
			<output>
				<port id="0" precision="FP32">
					<dim>1</dim>
					<dim>960</dim>
					<dim>1</dim>
					<dim>1</dim>
				</port>
			</output>
		</layer>
		<layer id="267" name="534" type="Add" version="opset1">
			<data auto_broadcast="numpy"/>
			<rt_info>
				<attribute name="fused_names" version="0" value="301, 302, 303, 304, 534"/>
			</rt_info>
			<input>
				<port id="0" precision="FP32">
					<dim>1</dim>
					<dim>960</dim>
					<dim>16</dim>
					<dim>16</dim>
				</port>
				<port id="1" precision="FP32">
					<dim>1</dim>
					<dim>960</dim>
					<dim>1</dim>
					<dim>1</dim>
				</port>
			</input>
			<output>
				<port id="2" precision="FP32" names="534">
					<dim>1</dim>
					<dim>960</dim>
					<dim>16</dim>
					<dim>16</dim>
				</port>
			</output>
		</layer>
		<layer id="268" name="535" type="ReLU" version="opset1">
			<rt_info>
				<attribute name="fused_names" version="0" value="535"/>
			</rt_info>
			<input>
				<port id="0" precision="FP32">
					<dim>1</dim>
					<dim>960</dim>
					<dim>16</dim>
					<dim>16</dim>
				</port>
			</input>
			<output>
				<port id="1" precision="FP32" names="535">
					<dim>1</dim>
					<dim>960</dim>
					<dim>16</dim>
					<dim>16</dim>
				</port>
			</output>
		</layer>
		<layer id="269" name="Multiply_17364" type="Const" version="opset1">
			<data element_type="f32" shape="320, 960, 1, 1" offset="6059868" size="1228800"/>
			<output>
				<port id="0" precision="FP32">
					<dim>320</dim>
					<dim>960</dim>
					<dim>1</dim>
					<dim>1</dim>
				</port>
			</output>
		</layer>
		<layer id="270" name="Multiply_16831" type="Convolution" version="opset1">
			<data strides="1, 1" dilations="1, 1" pads_begin="0, 0" pads_end="0, 0" auto_pad="explicit"/>
			<rt_info>
				<attribute name="fused_names" version="0" value="307, 308, 309, 310, 536, 537"/>
			</rt_info>
			<input>
				<port id="0" precision="FP32">
					<dim>1</dim>
					<dim>960</dim>
					<dim>16</dim>
					<dim>16</dim>
				</port>
				<port id="1" precision="FP32">
					<dim>320</dim>
					<dim>960</dim>
					<dim>1</dim>
					<dim>1</dim>
				</port>
			</input>
			<output>
				<port id="2" precision="FP32">
					<dim>1</dim>
					<dim>320</dim>
					<dim>16</dim>
					<dim>16</dim>
				</port>
			</output>
		</layer>
		<layer id="271" name="Constant_16836" type="Const" version="opset1">
			<data element_type="f32" shape="1, 320, 1, 1" offset="7288668" size="1280"/>
			<output>
				<port id="0" precision="FP32">
					<dim>1</dim>
					<dim>320</dim>
					<dim>1</dim>
					<dim>1</dim>
				</port>
			</output>
		</layer>
		<layer id="272" name="537" type="Add" version="opset1">
			<data auto_broadcast="numpy"/>
			<rt_info>
				<attribute name="fused_names" version="0" value="307, 308, 309, 310, 537"/>
			</rt_info>
			<input>
				<port id="0" precision="FP32">
					<dim>1</dim>
					<dim>320</dim>
					<dim>16</dim>
					<dim>16</dim>
				</port>
				<port id="1" precision="FP32">
					<dim>1</dim>
					<dim>320</dim>
					<dim>1</dim>
					<dim>1</dim>
				</port>
			</input>
			<output>
				<port id="2" precision="FP32" names="537">
					<dim>1</dim>
					<dim>320</dim>
					<dim>16</dim>
					<dim>16</dim>
				</port>
			</output>
		</layer>
		<layer id="273" name="Multiply_17373" type="Const" version="opset1">
			<data element_type="f32" shape="1280, 320, 1, 1" offset="7289948" size="1638400"/>
			<output>
				<port id="0" precision="FP32">
					<dim>1280</dim>
					<dim>320</dim>
					<dim>1</dim>
					<dim>1</dim>
				</port>
			</output>
		</layer>
		<layer id="274" name="Multiply_16838" type="Convolution" version="opset1">
			<data strides="1, 1" dilations="1, 1" pads_begin="0, 0" pads_end="0, 0" auto_pad="explicit"/>
			<rt_info>
				<attribute name="fused_names" version="0" value="313, 314, 315, 316, 538, 539"/>
			</rt_info>
			<input>
				<port id="0" precision="FP32">
					<dim>1</dim>
					<dim>320</dim>
					<dim>16</dim>
					<dim>16</dim>
				</port>
				<port id="1" precision="FP32">
					<dim>1280</dim>
					<dim>320</dim>
					<dim>1</dim>
					<dim>1</dim>
				</port>
			</input>
			<output>
				<port id="2" precision="FP32">
					<dim>1</dim>
					<dim>1280</dim>
					<dim>16</dim>
					<dim>16</dim>
				</port>
			</output>
		</layer>
		<layer id="275" name="Constant_16843" type="Const" version="opset1">
			<data element_type="f32" shape="1, 1280, 1, 1" offset="8928348" size="5120"/>
			<output>
				<port id="0" precision="FP32">
					<dim>1</dim>
					<dim>1280</dim>
					<dim>1</dim>
					<dim>1</dim>
				</port>
			</output>
		</layer>
		<layer id="276" name="539" type="Add" version="opset1">
			<data auto_broadcast="numpy"/>
			<rt_info>
				<attribute name="fused_names" version="0" value="313, 314, 315, 316, 539"/>
			</rt_info>
			<input>
				<port id="0" precision="FP32">
					<dim>1</dim>
					<dim>1280</dim>
					<dim>16</dim>
					<dim>16</dim>
				</port>
				<port id="1" precision="FP32">
					<dim>1</dim>
					<dim>1280</dim>
					<dim>1</dim>
					<dim>1</dim>
				</port>
			</input>
			<output>
				<port id="2" precision="FP32" names="539">
					<dim>1</dim>
					<dim>1280</dim>
					<dim>16</dim>
					<dim>16</dim>
				</port>
			</output>
		</layer>
		<layer id="277" name="540" type="ReLU" version="opset1">
			<rt_info>
				<attribute name="fused_names" version="0" value="540"/>
			</rt_info>
			<input>
				<port id="0" precision="FP32">
					<dim>1</dim>
					<dim>1280</dim>
					<dim>16</dim>
					<dim>16</dim>
				</port>
			</input>
			<output>
				<port id="1" precision="FP32" names="540">
					<dim>1</dim>
					<dim>1280</dim>
					<dim>16</dim>
					<dim>16</dim>
				</port>
			</output>
		</layer>
		<layer id="278" name="Multiply_17382" type="Const" version="opset1">
			<data element_type="f32" shape="1280, 1, 1, 3, 3" offset="8933468" size="46080"/>
			<output>
				<port id="0" precision="FP32">
					<dim>1280</dim>
					<dim>1</dim>
					<dim>1</dim>
					<dim>3</dim>
					<dim>3</dim>
				</port>
			</output>
		</layer>
		<layer id="279" name="Multiply_16848" type="GroupConvolution" version="opset1">
			<data strides="1, 1" pads_begin="1, 1" pads_end="1, 1" dilations="1, 1" auto_pad="explicit"/>
			<rt_info>
				<attribute name="fused_names" version="0" value="347, 348, 349, 350, 562, 563, Concat_2524, Reshape_2525"/>
			</rt_info>
			<input>
				<port id="0" precision="FP32">
					<dim>1</dim>
					<dim>1280</dim>
					<dim>16</dim>
					<dim>16</dim>
				</port>
				<port id="1" precision="FP32">
					<dim>1280</dim>
					<dim>1</dim>
					<dim>1</dim>
					<dim>3</dim>
					<dim>3</dim>
				</port>
			</input>
			<output>
				<port id="2" precision="FP32">
					<dim>1</dim>
					<dim>1280</dim>
					<dim>16</dim>
					<dim>16</dim>
				</port>
			</output>
		</layer>
		<layer id="280" name="Constant_16853" type="Const" version="opset1">
			<data element_type="f32" shape="1, 1280, 1, 1" offset="8979548" size="5120"/>
			<output>
				<port id="0" precision="FP32">
					<dim>1</dim>
					<dim>1280</dim>
					<dim>1</dim>
					<dim>1</dim>
				</port>
			</output>
		</layer>
		<layer id="281" name="563" type="Add" version="opset1">
			<data auto_broadcast="numpy"/>
			<rt_info>
				<attribute name="fused_names" version="0" value="347, 348, 349, 350, 562, 563, Concat_2524, Reshape_2525"/>
			</rt_info>
			<input>
				<port id="0" precision="FP32">
					<dim>1</dim>
					<dim>1280</dim>
					<dim>16</dim>
					<dim>16</dim>
				</port>
				<port id="1" precision="FP32">
					<dim>1</dim>
					<dim>1280</dim>
					<dim>1</dim>
					<dim>1</dim>
				</port>
			</input>
			<output>
				<port id="2" precision="FP32" names="563">
					<dim>1</dim>
					<dim>1280</dim>
					<dim>16</dim>
					<dim>16</dim>
				</port>
			</output>
		</layer>
		<layer id="282" name="564" type="ReLU" version="opset1">
			<rt_info>
				<attribute name="fused_names" version="0" value="564"/>
			</rt_info>
			<input>
				<port id="0" precision="FP32">
					<dim>1</dim>
					<dim>1280</dim>
					<dim>16</dim>
					<dim>16</dim>
				</port>
			</input>
			<output>
				<port id="1" precision="FP32" names="564">
					<dim>1</dim>
					<dim>1280</dim>
					<dim>16</dim>
					<dim>16</dim>
				</port>
			</output>
		</layer>
		<layer id="283" name="352" type="Const" version="opset1">
			<data element_type="f32" shape="36, 1280, 1, 1" offset="8984668" size="184320"/>
			<rt_info>
				<attribute name="fused_names" version="0" value="352"/>
			</rt_info>
			<output>
				<port id="0" precision="FP32" names="352">
					<dim>36</dim>
					<dim>1280</dim>
					<dim>1</dim>
					<dim>1</dim>
				</port>
			</output>
		</layer>
		<layer id="284" name="Convolution_2555" type="Convolution" version="opset1">
			<data strides="1, 1" dilations="1, 1" pads_begin="0, 0" pads_end="0, 0" auto_pad="explicit"/>
			<rt_info>
				<attribute name="fused_names" version="0" value="Convolution_2555"/>
			</rt_info>
			<input>
				<port id="0" precision="FP32">
					<dim>1</dim>
					<dim>1280</dim>
					<dim>16</dim>
					<dim>16</dim>
				</port>
				<port id="1" precision="FP32">
					<dim>36</dim>
					<dim>1280</dim>
					<dim>1</dim>
					<dim>1</dim>
				</port>
			</input>
			<output>
				<port id="2" precision="FP32">
					<dim>1</dim>
					<dim>36</dim>
					<dim>16</dim>
					<dim>16</dim>
				</port>
			</output>
		</layer>
		<layer id="285" name="Reshape_2575" type="Const" version="opset1">
			<data element_type="f32" shape="1, 36, 1, 1" offset="9168988" size="144"/>
			<output>
				<port id="0" precision="FP32">
					<dim>1</dim>
					<dim>36</dim>
					<dim>1</dim>
					<dim>1</dim>
				</port>
			</output>
		</layer>
		<layer id="286" name="565" type="Add" version="opset1">
			<data auto_broadcast="numpy"/>
			<rt_info>
				<attribute name="fused_names" version="0" value="565, Concat_2574, Reshape_2575"/>
			</rt_info>
			<input>
				<port id="0" precision="FP32">
					<dim>1</dim>
					<dim>36</dim>
					<dim>16</dim>
					<dim>16</dim>
				</port>
				<port id="1" precision="FP32">
					<dim>1</dim>
					<dim>36</dim>
					<dim>1</dim>
					<dim>1</dim>
				</port>
			</input>
			<output>
				<port id="2" precision="FP32" names="565">
					<dim>1</dim>
					<dim>36</dim>
					<dim>16</dim>
					<dim>16</dim>
				</port>
			</output>
		</layer>
		<layer id="287" name="Constant_3374" type="Const" version="opset1">
			<data element_type="i64" shape="4" offset="2467500" size="32"/>
			<rt_info>
				<attribute name="fused_names" version="0" value="Constant_3374"/>
			</rt_info>
			<output>
				<port id="0" precision="I64">
					<dim>4</dim>
				</port>
			</output>
		</layer>
		<layer id="288" name="634" type="Transpose" version="opset1">
			<rt_info>
				<attribute name="fused_names" version="0" value="634"/>
			</rt_info>
			<input>
				<port id="0" precision="FP32">
					<dim>1</dim>
					<dim>36</dim>
					<dim>16</dim>
					<dim>16</dim>
				</port>
				<port id="1" precision="I64">
					<dim>4</dim>
				</port>
			</input>
			<output>
				<port id="2" precision="FP32" names="634">
					<dim>1</dim>
					<dim>16</dim>
					<dim>16</dim>
					<dim>36</dim>
				</port>
			</output>
		</layer>
		<layer id="289" name="636" type="ShapeOf" version="opset3">
			<data output_type="i64"/>
			<rt_info>
				<attribute name="fused_names" version="0" value="636"/>
			</rt_info>
			<input>
				<port id="0" precision="FP32">
					<dim>1</dim>
					<dim>36</dim>
					<dim>16</dim>
					<dim>16</dim>
				</port>
			</input>
			<output>
				<port id="1" precision="I64" names="636">
					<dim>4</dim>
				</port>
			</output>
		</layer>
		<layer id="290" name="Constant_8018" type="Const" version="opset1">
			<data element_type="i64" shape="1" offset="2467532" size="8"/>
			<rt_info>
				<attribute name="fused_names" version="0" value="635, 637, 639, Constant_3378, Constant_3381"/>
			</rt_info>
			<output>
				<port id="0" precision="I64">
					<dim>1</dim>
				</port>
			</output>
		</layer>
		<layer id="291" name="Constant_3378" type="Const" version="opset1">
			<data element_type="i64" shape="" offset="2467532" size="8"/>
			<rt_info>
				<attribute name="fused_names" version="0" value="Constant_3378"/>
			</rt_info>
			<output>
				<port id="0" precision="I64"/>
			</output>
		</layer>
		<layer id="292" name="637" type="Gather" version="opset8">
			<data batch_dims="0"/>
			<rt_info>
				<attribute name="fused_names" version="0" value="635, 637, 639, Constant_3378, Constant_3381"/>
			</rt_info>
			<input>
				<port id="0" precision="I64">
					<dim>4</dim>
				</port>
				<port id="1" precision="I64">
					<dim>1</dim>
				</port>
				<port id="2" precision="I64"/>
			</input>
			<output>
				<port id="3" precision="I64" names="639">
					<dim>1</dim>
				</port>
			</output>
		</layer>
		<layer id="293" name="640" type="Const" version="opset1">
			<data element_type="i64" shape="1" offset="2467540" size="8"/>
			<output>
				<port id="0" precision="I64" names="640">
					<dim>1</dim>
				</port>
			</output>
		</layer>
		<layer id="294" name="641" type="Concat" version="opset1">
			<data axis="0"/>
			<rt_info>
				<attribute name="fused_names" version="0" value="640, 641"/>
			</rt_info>
			<input>
				<port id="0" precision="I64">
					<dim>1</dim>
				</port>
				<port id="1" precision="I64">
					<dim>1</dim>
				</port>
			</input>
			<output>
				<port id="2" precision="I64" names="641">
					<dim>2</dim>
				</port>
			</output>
		</layer>
		<layer id="295" name="642" type="Reshape" version="opset1">
			<data special_zero="true"/>
			<rt_info>
				<attribute name="fused_names" version="0" value="642"/>
			</rt_info>
			<input>
				<port id="0" precision="FP32">
					<dim>1</dim>
					<dim>16</dim>
					<dim>16</dim>
					<dim>36</dim>
				</port>
				<port id="1" precision="I64">
					<dim>2</dim>
				</port>
			</input>
			<output>
				<port id="2" precision="FP32" names="642">
					<dim>1</dim>
					<dim>9216</dim>
				</port>
			</output>
		</layer>
		<layer id="296" name="Multiply_17390" type="Const" version="opset1">
			<data element_type="f32" shape="256, 1280, 1, 1" offset="9169132" size="1310720"/>
			<output>
				<port id="0" precision="FP32">
					<dim>256</dim>
					<dim>1280</dim>
					<dim>1</dim>
					<dim>1</dim>
				</port>
			</output>
		</layer>
		<layer id="297" name="Multiply_16855" type="Convolution" version="opset1">
			<data strides="1, 1" dilations="1, 1" pads_begin="0, 0" pads_end="0, 0" auto_pad="explicit"/>
			<rt_info>
				<attribute name="fused_names" version="0" value="319, 320, 321, 322, 541, 542"/>
			</rt_info>
			<input>
				<port id="0" precision="FP32">
					<dim>1</dim>
					<dim>1280</dim>
					<dim>16</dim>
					<dim>16</dim>
				</port>
				<port id="1" precision="FP32">
					<dim>256</dim>
					<dim>1280</dim>
					<dim>1</dim>
					<dim>1</dim>
				</port>
			</input>
			<output>
				<port id="2" precision="FP32">
					<dim>1</dim>
					<dim>256</dim>
					<dim>16</dim>
					<dim>16</dim>
				</port>
			</output>
		</layer>
		<layer id="298" name="Constant_16860" type="Const" version="opset1">
			<data element_type="f32" shape="1, 256, 1, 1" offset="10479852" size="1024"/>
			<output>
				<port id="0" precision="FP32">
					<dim>1</dim>
					<dim>256</dim>
					<dim>1</dim>
					<dim>1</dim>
				</port>
			</output>
		</layer>
		<layer id="299" name="542" type="Add" version="opset1">
			<data auto_broadcast="numpy"/>
			<rt_info>
				<attribute name="fused_names" version="0" value="319, 320, 321, 322, 542"/>
			</rt_info>
			<input>
				<port id="0" precision="FP32">
					<dim>1</dim>
					<dim>256</dim>
					<dim>16</dim>
					<dim>16</dim>
				</port>
				<port id="1" precision="FP32">
					<dim>1</dim>
					<dim>256</dim>
					<dim>1</dim>
					<dim>1</dim>
				</port>
			</input>
			<output>
				<port id="2" precision="FP32" names="542">
					<dim>1</dim>
					<dim>256</dim>
					<dim>16</dim>
					<dim>16</dim>
				</port>
			</output>
		</layer>
		<layer id="300" name="543" type="ReLU" version="opset1">
			<rt_info>
				<attribute name="fused_names" version="0" value="543"/>
			</rt_info>
			<input>
				<port id="0" precision="FP32">
					<dim>1</dim>
					<dim>256</dim>
					<dim>16</dim>
					<dim>16</dim>
				</port>
			</input>
			<output>
				<port id="1" precision="FP32" names="543">
					<dim>1</dim>
					<dim>256</dim>
					<dim>16</dim>
					<dim>16</dim>
				</port>
			</output>
		</layer>
		<layer id="301" name="Multiply_17399" type="Const" version="opset1">
			<data element_type="f32" shape="256, 1, 1, 3, 3" offset="10480876" size="9216"/>
			<output>
				<port id="0" precision="FP32">
					<dim>256</dim>
					<dim>1</dim>
					<dim>1</dim>
					<dim>3</dim>
					<dim>3</dim>
				</port>
			</output>
		</layer>
		<layer id="302" name="Multiply_16862" type="GroupConvolution" version="opset1">
			<data strides="2, 2" pads_begin="1, 1" pads_end="1, 1" dilations="1, 1" auto_pad="explicit"/>
			<rt_info>
				<attribute name="fused_names" version="0" value="325, 326, 327, 328, 545"/>
			</rt_info>
			<input>
				<port id="0" precision="FP32">
					<dim>1</dim>
					<dim>256</dim>
					<dim>16</dim>
					<dim>16</dim>
				</port>
				<port id="1" precision="FP32">
					<dim>256</dim>
					<dim>1</dim>
					<dim>1</dim>
					<dim>3</dim>
					<dim>3</dim>
				</port>
			</input>
			<output>
				<port id="2" precision="FP32" names="544">
					<dim>1</dim>
					<dim>256</dim>
					<dim>8</dim>
					<dim>8</dim>
				</port>
			</output>
		</layer>
		<layer id="303" name="Constant_16867" type="Const" version="opset1">
			<data element_type="f32" shape="1, 256, 1, 1" offset="10490092" size="1024"/>
			<output>
				<port id="0" precision="FP32">
					<dim>1</dim>
					<dim>256</dim>
					<dim>1</dim>
					<dim>1</dim>
				</port>
			</output>
		</layer>
		<layer id="304" name="545" type="Add" version="opset1">
			<data auto_broadcast="numpy"/>
			<rt_info>
				<attribute name="fused_names" version="0" value="325, 326, 327, 328, 545"/>
			</rt_info>
			<input>
				<port id="0" precision="FP32">
					<dim>1</dim>
					<dim>256</dim>
					<dim>8</dim>
					<dim>8</dim>
				</port>
				<port id="1" precision="FP32">
					<dim>1</dim>
					<dim>256</dim>
					<dim>1</dim>
					<dim>1</dim>
				</port>
			</input>
			<output>
				<port id="2" precision="FP32" names="545">
					<dim>1</dim>
					<dim>256</dim>
					<dim>8</dim>
					<dim>8</dim>
				</port>
			</output>
		</layer>
		<layer id="305" name="546" type="ReLU" version="opset1">
			<rt_info>
				<attribute name="fused_names" version="0" value="546"/>
			</rt_info>
			<input>
				<port id="0" precision="FP32">
					<dim>1</dim>
					<dim>256</dim>
					<dim>8</dim>
					<dim>8</dim>
				</port>
			</input>
			<output>
…
				<attribute name="fused_names" version="0" value="Constant_2952"/>
			</rt_info>
			<output>
				<port id="0" precision="I64">
					<dim>1</dim>
				</port>
			</output>
		</layer>
		<layer id="408" name="Constant_2951" type="Const" version="opset1">
			<data element_type="i64" shape="1" offset="11548004" size="8"/>
			<rt_info>
				<attribute name="fused_names" version="0" value="Constant_2951"/>
			</rt_info>
			<output>
				<port id="0" precision="I64">
					<dim>1</dim>
				</port>
			</output>
		</layer>
		<layer id="409" name="Constant_2953" type="Const" version="opset1">
			<data element_type="i64" shape="1" offset="11547980" size="8"/>
			<rt_info>
				<attribute name="fused_names" version="0" value="Constant_2953"/>
			</rt_info>
			<output>
				<port id="0" precision="I64">
					<dim>1</dim>
				</port>
			</output>
		</layer>
		<layer id="410" name="StridedSlice_2954" type="StridedSlice" version="opset1">
			<data begin_mask="0" end_mask="0" new_axis_mask="" shrink_axis_mask="" ellipsis_mask=""/>
			<rt_info>
				<attribute name="fused_names" version="0" value="StridedSlice_2954"/>
			</rt_info>
			<input>
				<port id="0" precision="I64">
					<dim>4</dim>
				</port>
				<port id="1" precision="I64">
					<dim>1</dim>
				</port>
				<port id="2" precision="I64">
					<dim>1</dim>
				</port>
				<port id="3" precision="I64">
					<dim>1</dim>
				</port>
			</input>
			<output>
				<port id="4" precision="I64">
					<dim>2</dim>
				</port>
			</output>
		</layer>
		<layer id="411" name="PriorBoxClustered_2956" type="PriorBoxClustered" version="opset1">
			<data step="16" step_w="0" step_h="0" width="17.137, 38.165, 70.69, 9.584, 17.634, 23.744, 6.507, 12.245, 14.749" height="20.733, 45.464, 78.592, 29.393, 55.398, 84.88, 17.006, 28.673, 44.11" clip="false" offset="0.5" variance="0.1, 0.1, 0.2, 0.2"/>
			<rt_info>
				<attribute name="fused_names" version="0" value="PriorBoxClustered_2956"/>
			</rt_info>
			<input>
				<port id="0" precision="I64">
					<dim>2</dim>
				</port>
				<port id="1" precision="I64">
					<dim>2</dim>
				</port>
			</input>
			<output>
				<port id="2" precision="FP32">
					<dim>2</dim>
					<dim>36864</dim>
				</port>
			</output>
		</layer>
		<layer id="412" name="Constant_2955" type="Const" version="opset1">
			<data element_type="i64" shape="1" offset="2467532" size="8"/>
			<rt_info>
				<attribute name="fused_names" version="0" value="Constant_2955"/>
			</rt_info>
			<output>
				<port id="0" precision="I64">
					<dim>1</dim>
				</port>
			</output>
		</layer>
		<layer id="413" name="574" type="Unsqueeze" version="opset1">
			<rt_info>
				<attribute name="fused_names" version="0" value="574"/>
			</rt_info>
			<input>
				<port id="0" precision="FP32">
					<dim>2</dim>
					<dim>36864</dim>
				</port>
				<port id="1" precision="I64">
					<dim>1</dim>
				</port>
			</input>
			<output>
				<port id="2" precision="FP32" names="574">
					<dim>1</dim>
					<dim>2</dim>
					<dim>36864</dim>
				</port>
			</output>
		</layer>
		<layer id="414" name="ShapeOf_2974" type="ShapeOf" version="opset3">
			<data output_type="i64"/>
			<rt_info>
				<attribute name="fused_names" version="0" value="ShapeOf_2974"/>
			</rt_info>
			<input>
				<port id="0" precision="FP32">
					<dim>1</dim>
					<dim>1280</dim>
					<dim>16</dim>
					<dim>16</dim>
				</port>
			</input>
			<output>
				<port id="1" precision="I64">
					<dim>4</dim>
				</port>
			</output>
		</layer>
		<layer id="415" name="Constant_2977" type="Const" version="opset1">
			<data element_type="i64" shape="1" offset="11547972" size="8"/>
			<rt_info>
				<attribute name="fused_names" version="0" value="Constant_2977"/>
			</rt_info>
			<output>
				<port id="0" precision="I64">
					<dim>1</dim>
				</port>
			</output>
		</layer>
		<layer id="416" name="Constant_2976" type="Const" version="opset1">
			<data element_type="i64" shape="1" offset="11548004" size="8"/>
			<rt_info>
				<attribute name="fused_names" version="0" value="Constant_2976"/>
			</rt_info>
			<output>
				<port id="0" precision="I64">
					<dim>1</dim>
				</port>
			</output>
		</layer>
		<layer id="417" name="Constant_2978" type="Const" version="opset1">
			<data element_type="i64" shape="1" offset="11547980" size="8"/>
			<rt_info>
				<attribute name="fused_names" version="0" value="Constant_2978"/>
			</rt_info>
			<output>
				<port id="0" precision="I64">
					<dim>1</dim>
				</port>
			</output>
		</layer>
		<layer id="418" name="StridedSlice_2979" type="StridedSlice" version="opset1">
			<data begin_mask="0" end_mask="0" new_axis_mask="" shrink_axis_mask="" ellipsis_mask=""/>
			<rt_info>
				<attribute name="fused_names" version="0" value="Constant_2976, Constant_2977, Constant_2978, StridedSlice_2979"/>
			</rt_info>
			<input>
				<port id="0" precision="I64">
					<dim>4</dim>
				</port>
				<port id="1" precision="I64">
					<dim>1</dim>
				</port>
				<port id="2" precision="I64">
					<dim>1</dim>
				</port>
				<port id="3" precision="I64">
					<dim>1</dim>
				</port>
			</input>
			<output>
				<port id="4" precision="I64">
					<dim>2</dim>
				</port>
			</output>
		</layer>
		<layer id="419" name="Constant_2981" type="Const" version="opset1">
			<data element_type="i64" shape="1" offset="11547972" size="8"/>
			<rt_info>
				<attribute name="fused_names" version="0" value="Constant_2981"/>
			</rt_info>
			<output>
				<port id="0" precision="I64">
					<dim>1</dim>
				</port>
			</output>
		</layer>
		<layer id="420" name="Constant_2980" type="Const" version="opset1">
			<data element_type="i64" shape="1" offset="11548004" size="8"/>
			<rt_info>
				<attribute name="fused_names" version="0" value="Constant_2980"/>
			</rt_info>
			<output>
				<port id="0" precision="I64">
					<dim>1</dim>
				</port>
			</output>
		</layer>
		<layer id="421" name="Constant_2982" type="Const" version="opset1">
			<data element_type="i64" shape="1" offset="11547980" size="8"/>
			<rt_info>
				<attribute name="fused_names" version="0" value="Constant_2982"/>
			</rt_info>
			<output>
				<port id="0" precision="I64">
					<dim>1</dim>
				</port>
			</output>
		</layer>
		<layer id="422" name="StridedSlice_2983" type="StridedSlice" version="opset1">
			<data begin_mask="0" end_mask="0" new_axis_mask="" shrink_axis_mask="" ellipsis_mask=""/>
			<rt_info>
				<attribute name="fused_names" version="0" value="StridedSlice_2983"/>
			</rt_info>
			<input>
				<port id="0" precision="I64">
					<dim>4</dim>
				</port>
				<port id="1" precision="I64">
					<dim>1</dim>
				</port>
				<port id="2" precision="I64">
					<dim>1</dim>
				</port>
				<port id="3" precision="I64">
					<dim>1</dim>
				</port>
			</input>
			<output>
				<port id="4" precision="I64">
					<dim>2</dim>
				</port>
			</output>
		</layer>
		<layer id="423" name="PriorBoxClustered_2985" type="PriorBoxClustered" version="opset1">
			<data step="32" step_w="0" step_h="0" width="81.753, 153.183, 169.567, 32.148, 41.048, 52.198, 32.391, 22.397, 33.216" height="157.379, 104.698, 210.545, 118.319, 157.328, 203.363, 36.256, 64.451, 101.718" clip="false" offset="0.5" variance="0.1, 0.1, 0.2, 0.2"/>
			<rt_info>
				<attribute name="fused_names" version="0" value="PriorBoxClustered_2985"/>
			</rt_info>
			<input>
				<port id="0" precision="I64">
					<dim>2</dim>
				</port>
				<port id="1" precision="I64">
					<dim>2</dim>
				</port>
			</input>
			<output>
				<port id="2" precision="FP32">
					<dim>2</dim>
					<dim>9216</dim>
				</port>
			</output>
		</layer>
		<layer id="424" name="Constant_2984" type="Const" version="opset1">
			<data element_type="i64" shape="1" offset="2467532" size="8"/>
			<rt_info>
				<attribute name="fused_names" version="0" value="Constant_2984"/>
			</rt_info>
			<output>
				<port id="0" precision="I64">
					<dim>1</dim>
				</port>
			</output>
		</layer>
		<layer id="425" name="575" type="Unsqueeze" version="opset1">
			<rt_info>
				<attribute name="fused_names" version="0" value="575"/>
			</rt_info>
			<input>
				<port id="0" precision="FP32">
					<dim>2</dim>
					<dim>9216</dim>
				</port>
				<port id="1" precision="I64">
					<dim>1</dim>
				</port>
			</input>
			<output>
				<port id="2" precision="FP32" names="575">
					<dim>1</dim>
					<dim>2</dim>
					<dim>9216</dim>
				</port>
			</output>
		</layer>
		<layer id="426" name="ShapeOf_3003" type="ShapeOf" version="opset3">
			<data output_type="i64"/>
			<rt_info>
				<attribute name="fused_names" version="0" value="ShapeOf_3003"/>
			</rt_info>
			<input>
				<port id="0" precision="FP32">
					<dim>1</dim>
					<dim>512</dim>
					<dim>8</dim>
					<dim>8</dim>
				</port>
			</input>
			<output>
				<port id="1" precision="I64">
					<dim>4</dim>
				</port>
			</output>
		</layer>
		<layer id="427" name="Constant_3006" type="Const" version="opset1">
			<data element_type="i64" shape="1" offset="11547972" size="8"/>
			<rt_info>
				<attribute name="fused_names" version="0" value="Constant_3006"/>
			</rt_info>
			<output>
				<port id="0" precision="I64">
					<dim>1</dim>
				</port>
			</output>
		</layer>
		<layer id="428" name="Constant_3005" type="Const" version="opset1">
			<data element_type="i64" shape="1" offset="11548004" size="8"/>
			<rt_info>
				<attribute name="fused_names" version="0" value="Constant_3005"/>
			</rt_info>
			<output>
				<port id="0" precision="I64">
					<dim>1</dim>
				</port>
			</output>
		</layer>
		<layer id="429" name="Constant_3007" type="Const" version="opset1">
			<data element_type="i64" shape="1" offset="11547980" size="8"/>
			<rt_info>
				<attribute name="fused_names" version="0" value="Constant_3007"/>
			</rt_info>
			<output>
				<port id="0" precision="I64">
					<dim>1</dim>
				</port>
			</output>
		</layer>
		<layer id="430" name="StridedSlice_3008" type="StridedSlice" version="opset1">
			<data begin_mask="0" end_mask="0" new_axis_mask="" shrink_axis_mask="" ellipsis_mask=""/>
			<rt_info>
				<attribute name="fused_names" version="0" value="Constant_3005, Constant_3006, Constant_3007, StridedSlice_3008"/>
			</rt_info>
			<input>
				<port id="0" precision="I64">
					<dim>4</dim>
				</port>
				<port id="1" precision="I64">
					<dim>1</dim>
				</port>
				<port id="2" precision="I64">
					<dim>1</dim>
				</port>
				<port id="3" precision="I64">
					<dim>1</dim>
				</port>
			</input>
			<output>
				<port id="4" precision="I64">
					<dim>2</dim>
				</port>
			</output>
		</layer>
		<layer id="431" name="Constant_3010" type="Const" version="opset1">
			<data element_type="i64" shape="1" offset="11547972" size="8"/>
			<rt_info>
				<attribute name="fused_names" version="0" value="Constant_3010"/>
			</rt_info>
			<output>
				<port id="0" precision="I64">
					<dim>1</dim>
				</port>
			</output>
		</layer>
		<layer id="432" name="Constant_3009" type="Const" version="opset1">
			<data element_type="i64" shape="1" offset="11548004" size="8"/>
			<rt_info>
				<attribute name="fused_names" version="0" value="Constant_3009"/>
			</rt_info>
			<output>
				<port id="0" precision="I64">
					<dim>1</dim>
				</port>
			</output>
		</layer>
		<layer id="433" name="Constant_3011" type="Const" version="opset1">
			<data element_type="i64" shape="1" offset="11547980" size="8"/>
			<rt_info>
				<attribute name="fused_names" version="0" value="Constant_3011"/>
			</rt_info>
			<output>
				<port id="0" precision="I64">
					<dim>1</dim>
				</port>
			</output>
		</layer>
		<layer id="434" name="StridedSlice_3012" type="StridedSlice" version="opset1">
			<data begin_mask="0" end_mask="0" new_axis_mask="" shrink_axis_mask="" ellipsis_mask=""/>
			<rt_info>
				<attribute name="fused_names" version="0" value="StridedSlice_3012"/>
			</rt_info>
			<input>
				<port id="0" precision="I64">
					<dim>4</dim>
				</port>
				<port id="1" precision="I64">
					<dim>1</dim>
				</port>
				<port id="2" precision="I64">
					<dim>1</dim>
				</port>
				<port id="3" precision="I64">
					<dim>1</dim>
				</port>
			</input>
			<output>
				<port id="4" precision="I64">
					<dim>2</dim>
				</port>
			</output>
		</layer>
		<layer id="435" name="PriorBoxClustered_3014" type="PriorBoxClustered" version="opset1">
			<data step="64" step_w="0" step_h="0" width="110.651, 237.237, 348.269, 65.598, 82.729, 110.538, 53.24, 68.246, 105.444" height="344.064, 243.971, 337.749, 256.941, 327.187, 428.114, 68.919, 155.867, 270.048" clip="false" offset="0.5" variance="0.1, 0.1, 0.2, 0.2"/>
			<rt_info>
				<attribute name="fused_names" version="0" value="PriorBoxClustered_3014"/>
			</rt_info>
			<input>
				<port id="0" precision="I64">
					<dim>2</dim>
				</port>
				<port id="1" precision="I64">
					<dim>2</dim>
				</port>
			</input>
			<output>
				<port id="2" precision="FP32">
					<dim>2</dim>
					<dim>2304</dim>
				</port>
			</output>
		</layer>
		<layer id="436" name="Constant_3013" type="Const" version="opset1">
			<data element_type="i64" shape="1" offset="2467532" size="8"/>
			<rt_info>
				<attribute name="fused_names" version="0" value="Constant_3013"/>
			</rt_info>
			<output>
				<port id="0" precision="I64">
					<dim>1</dim>
				</port>
			</output>
		</layer>
		<layer id="437" name="576" type="Unsqueeze" version="opset1">
			<rt_info>
				<attribute name="fused_names" version="0" value="576"/>
			</rt_info>
			<input>
				<port id="0" precision="FP32">
					<dim>2</dim>
					<dim>2304</dim>
				</port>
				<port id="1" precision="I64">
					<dim>1</dim>
				</port>
			</input>
			<output>
				<port id="2" precision="FP32" names="576">
					<dim>1</dim>
					<dim>2</dim>
					<dim>2304</dim>
				</port>
			</output>
		</layer>
		<layer id="438" name="577" type="Concat" version="opset1">
			<data axis="2"/>
			<rt_info>
				<attribute name="fused_names" version="0" value="577"/>
			</rt_info>
			<input>
				<port id="0" precision="FP32">
					<dim>1</dim>
					<dim>2</dim>
					<dim>36864</dim>
				</port>
				<port id="1" precision="FP32">
					<dim>1</dim>
					<dim>2</dim>
					<dim>9216</dim>
				</port>
				<port id="2" precision="FP32">
					<dim>1</dim>
					<dim>2</dim>
					<dim>2304</dim>
				</port>
			</input>
			<output>
				<port id="3" precision="FP32" names="577">
					<dim>1</dim>
					<dim>2</dim>
					<dim>48384</dim>
				</port>
			</output>
		</layer>
		<layer id="439" name="653" type="DetectionOutput" version="opset8">
			<data background_label_id="0" top_k="200" variance_encoded_in_target="false" keep_top_k="200" code_type="caffe.PriorBoxParameter.CENTER_SIZE" share_location="true" nms_threshold="0.44999998807907104" confidence_threshold="0.019999999552965164" clip_after_nms="false" clip_before_nms="false" decrease_label_id="false" normalized="true" input_height="1" input_width="1" objectness_score="0"/>
			<rt_info>
				<attribute name="fused_names" version="0" value="653"/>
			</rt_info>
			<input>
				<port id="0" precision="FP32">
					<dim>1</dim>
					<dim>48384</dim>
				</port>
				<port id="1" precision="FP32">
					<dim>1</dim>
					<dim>48384</dim>
				</port>
				<port id="2" precision="FP32">
					<dim>1</dim>
					<dim>2</dim>
					<dim>48384</dim>
				</port>
			</input>
			<output>
				<port id="3" precision="FP32" names="653">
					<dim>1</dim>
					<dim>1</dim>
					<dim>200</dim>
					<dim>7</dim>
				</port>
			</output>
		</layer>
		<layer id="440" name="653/sink_port_0" type="Result" version="opset1">
			<rt_info>
				<attribute name="fused_names" version="0" value="653/sink_port_0"/>
			</rt_info>
			<input>
				<port id="0" precision="FP32">
					<dim>1</dim>
					<dim>1</dim>
					<dim>200</dim>
					<dim>7</dim>
				</port>
			</input>
		</layer>
	</layers>
	<edges>
		<edge from-layer="0" from-port="0" to-layer="2" to-port="0"/>
		<edge from-layer="1" from-port="0" to-layer="2" to-port="1"/>
		<edge from-layer="2" from-port="2" to-layer="406" to-port="0"/>
		<edge from-layer="2" from-port="2" to-layer="4" to-port="0"/>
		<edge from-layer="3" from-port="0" to-layer="4" to-port="1"/>
		<edge from-layer="4" from-port="2" to-layer="6" to-port="0"/>
		<edge from-layer="5" from-port="0" to-layer="6" to-port="1"/>
		<edge from-layer="6" from-port="2" to-layer="8" to-port="0"/>
		<edge from-layer="7" from-port="0" to-layer="8" to-port="1"/>
		<edge from-layer="8" from-port="2" to-layer="10" to-port="0"/>
		<edge from-layer="9" from-port="0" to-layer="10" to-port="1"/>
		<edge from-layer="10" from-port="2" to-layer="11" to-port="0"/>
		<edge from-layer="11" from-port="1" to-layer="13" to-port="0"/>
		<edge from-layer="12" from-port="0" to-layer="13" to-port="1"/>
		<edge from-layer="13" from-port="2" to-layer="15" to-port="0"/>
		<edge from-layer="14" from-port="0" to-layer="15" to-port="1"/>
		<edge from-layer="15" from-port="2" to-layer="16" to-port="0"/>
		<edge from-layer="16" from-port="1" to-layer="18" to-port="0"/>
		<edge from-layer="17" from-port="0" to-layer="18" to-port="1"/>
		<edge from-layer="18" from-port="2" to-layer="20" to-port="0"/>
		<edge from-layer="19" from-port="0" to-layer="20" to-port="1"/>
		<edge from-layer="20" from-port="2" to-layer="22" to-port="0"/>
		<edge from-layer="21" from-port="0" to-layer="22" to-port="1"/>
		<edge from-layer="22" from-port="2" to-layer="24" to-port="0"/>
		<edge from-layer="23" from-port="0" to-layer="24" to-port="1"/>
		<edge from-layer="24" from-port="2" to-layer="25" to-port="0"/>
		<edge from-layer="25" from-port="1" to-layer="27" to-port="0"/>
		<edge from-layer="26" from-port="0" to-layer="27" to-port="1"/>
		<edge from-layer="27" from-port="2" to-layer="29" to-port="0"/>
		<edge from-layer="28" from-port="0" to-layer="29" to-port="1"/>
		<edge from-layer="29" from-port="2" to-layer="30" to-port="0"/>
		<edge from-layer="30" from-port="1" to-layer="32" to-port="0"/>
		<edge from-layer="31" from-port="0" to-layer="32" to-port="1"/>
		<edge from-layer="32" from-port="2" to-layer="34" to-port="0"/>
		<edge from-layer="33" from-port="0" to-layer="34" to-port="1"/>
		<edge from-layer="34" from-port="2" to-layer="49" to-port="0"/>
		<edge from-layer="34" from-port="2" to-layer="36" to-port="0"/>
		<edge from-layer="35" from-port="0" to-layer="36" to-port="1"/>
		<edge from-layer="36" from-port="2" to-layer="38" to-port="0"/>
		<edge from-layer="37" from-port="0" to-layer="38" to-port="1"/>
		<edge from-layer="38" from-port="2" to-layer="39" to-port="0"/>
		<edge from-layer="39" from-port="1" to-layer="41" to-port="0"/>
		<edge from-layer="40" from-port="0" to-layer="41" to-port="1"/>
		<edge from-layer="41" from-port="2" to-layer="43" to-port="0"/>
		<edge from-layer="42" from-port="0" to-layer="43" to-port="1"/>
		<edge from-layer="43" from-port="2" to-layer="44" to-port="0"/>
		<edge from-layer="44" from-port="1" to-layer="46" to-port="0"/>
		<edge from-layer="45" from-port="0" to-layer="46" to-port="1"/>
		<edge from-layer="46" from-port="2" to-layer="48" to-port="0"/>
		<edge from-layer="47" from-port="0" to-layer="48" to-port="1"/>
		<edge from-layer="48" from-port="2" to-layer="49" to-port="1"/>
		<edge from-layer="49" from-port="2" to-layer="51" to-port="0"/>
		<edge from-layer="50" from-port="0" to-layer="51" to-port="1"/>
		<edge from-layer="51" from-port="2" to-layer="53" to-port="0"/>
		<edge from-layer="52" from-port="0" to-layer="53" to-port="1"/>
		<edge from-layer="53" from-port="2" to-layer="54" to-port="0"/>
		<edge from-layer="54" from-port="1" to-layer="56" to-port="0"/>
		<edge from-layer="55" from-port="0" to-layer="56" to-port="1"/>
		<edge from-layer="56" from-port="2" to-layer="58" to-port="0"/>
		<edge from-layer="57" from-port="0" to-layer="58" to-port="1"/>
		<edge from-layer="58" from-port="2" to-layer="59" to-port="0"/>
		<edge from-layer="59" from-port="1" to-layer="61" to-port="0"/>
		<edge from-layer="60" from-port="0" to-layer="61" to-port="1"/>
		<edge from-layer="61" from-port="2" to-layer="63" to-port="0"/>
		<edge from-layer="62" from-port="0" to-layer="63" to-port="1"/>
		<edge from-layer="63" from-port="2" to-layer="65" to-port="0"/>
		<edge from-layer="63" from-port="2" to-layer="78" to-port="0"/>
		<edge from-layer="64" from-port="0" to-layer="65" to-port="1"/>
		<edge from-layer="65" from-port="2" to-layer="67" to-port="0"/>
		<edge from-layer="66" from-port="0" to-layer="67" to-port="1"/>
		<edge from-layer="67" from-port="2" to-layer="68" to-port="0"/>
		<edge from-layer="68" from-port="1" to-layer="70" to-port="0"/>
		<edge from-layer="69" from-port="0" to-layer="70" to-port="1"/>
		<edge from-layer="70" from-port="2" to-layer="72" to-port="0"/>
		<edge from-layer="71" from-port="0" to-layer="72" to-port="1"/>
		<edge from-layer="72" from-port="2" to-layer="73" to-port="0"/>
		<edge from-layer="73" from-port="1" to-layer="75" to-port="0"/>
		<edge from-layer="74" from-port="0" to-layer="75" to-port="1"/>
		<edge from-layer="75" from-port="2" to-layer="77" to-port="0"/>
		<edge from-layer="76" from-port="0" to-layer="77" to-port="1"/>
		<edge from-layer="77" from-port="2" to-layer="78" to-port="1"/>
		<edge from-layer="78" from-port="2" to-layer="80" to-port="0"/>
		<edge from-layer="78" from-port="2" to-layer="93" to-port="0"/>
		<edge from-layer="79" from-port="0" to-layer="80" to-port="1"/>
		<edge from-layer="80" from-port="2" to-layer="82" to-port="0"/>
		<edge from-layer="81" from-port="0" to-layer="82" to-port="1"/>
		<edge from-layer="82" from-port="2" to-layer="83" to-port="0"/>
		<edge from-layer="83" from-port="1" to-layer="85" to-port="0"/>
		<edge from-layer="84" from-port="0" to-layer="85" to-port="1"/>
		<edge from-layer="85" from-port="2" to-layer="87" to-port="0"/>
		<edge from-layer="86" from-port="0" to-layer="87" to-port="1"/>
		<edge from-layer="87" from-port="2" to-layer="88" to-port="0"/>
		<edge from-layer="88" from-port="1" to-layer="90" to-port="0"/>
		<edge from-layer="89" from-port="0" to-layer="90" to-port="1"/>
		<edge from-layer="90" from-port="2" to-layer="92" to-port="0"/>
		<edge from-layer="91" from-port="0" to-layer="92" to-port="1"/>
		<edge from-layer="92" from-port="2" to-layer="93" to-port="1"/>
		<edge from-layer="93" from-port="2" to-layer="95" to-port="0"/>
		<edge from-layer="94" from-port="0" to-layer="95" to-port="1"/>
		<edge from-layer="95" from-port="2" to-layer="97" to-port="0"/>
		<edge from-layer="96" from-port="0" to-layer="97" to-port="1"/>
		<edge from-layer="97" from-port="2" to-layer="98" to-port="0"/>
		<edge from-layer="98" from-port="1" to-layer="100" to-port="0"/>
		<edge from-layer="99" from-port="0" to-layer="100" to-port="1"/>
		<edge from-layer="100" from-port="2" to-layer="102" to-port="0"/>
		<edge from-layer="101" from-port="0" to-layer="102" to-port="1"/>
		<edge from-layer="102" from-port="2" to-layer="103" to-port="0"/>
		<edge from-layer="103" from-port="1" to-layer="105" to-port="0"/>
		<edge from-layer="104" from-port="0" to-layer="105" to-port="1"/>
		<edge from-layer="105" from-port="2" to-layer="107" to-port="0"/>
		<edge from-layer="106" from-port="0" to-layer="107" to-port="1"/>
		<edge from-layer="107" from-port="2" to-layer="109" to-port="0"/>
		<edge from-layer="107" from-port="2" to-layer="122" to-port="0"/>
		<edge from-layer="108" from-port="0" to-layer="109" to-port="1"/>
		<edge from-layer="109" from-port="2" to-layer="111" to-port="0"/>
		<edge from-layer="110" from-port="0" to-layer="111" to-port="1"/>
		<edge from-layer="111" from-port="2" to-layer="112" to-port="0"/>
		<edge from-layer="112" from-port="1" to-layer="114" to-port="0"/>
		<edge from-layer="113" from-port="0" to-layer="114" to-port="1"/>
		<edge from-layer="114" from-port="2" to-layer="116" to-port="0"/>
		<edge from-layer="115" from-port="0" to-layer="116" to-port="1"/>
		<edge from-layer="116" from-port="2" to-layer="117" to-port="0"/>
		<edge from-layer="117" from-port="1" to-layer="119" to-port="0"/>
		<edge from-layer="118" from-port="0" to-layer="119" to-port="1"/>
		<edge from-layer="119" from-port="2" to-layer="121" to-port="0"/>
		<edge from-layer="120" from-port="0" to-layer="121" to-port="1"/>
		<edge from-layer="121" from-port="2" to-layer="122" to-port="1"/>
		<edge from-layer="122" from-port="2" to-layer="137" to-port="0"/>
		<edge from-layer="122" from-port="2" to-layer="124" to-port="0"/>
		<edge from-layer="123" from-port="0" to-layer="124" to-port="1"/>
		<edge from-layer="124" from-port="2" to-layer="126" to-port="0"/>
		<edge from-layer="125" from-port="0" to-layer="126" to-port="1"/>
		<edge from-layer="126" from-port="2" to-layer="127" to-port="0"/>
		<edge from-layer="127" from-port="1" to-layer="129" to-port="0"/>
		<edge from-layer="128" from-port="0" to-layer="129" to-port="1"/>
		<edge from-layer="129" from-port="2" to-layer="131" to-port="0"/>
		<edge from-layer="130" from-port="0" to-layer="131" to-port="1"/>
		<edge from-layer="131" from-port="2" to-layer="132" to-port="0"/>
		<edge from-layer="132" from-port="1" to-layer="134" to-port="0"/>
		<edge from-layer="133" from-port="0" to-layer="134" to-port="1"/>
		<edge from-layer="134" from-port="2" to-layer="136" to-port="0"/>
		<edge from-layer="135" from-port="0" to-layer="136" to-port="1"/>
		<edge from-layer="136" from-port="2" to-layer="137" to-port="1"/>
		<edge from-layer="137" from-port="2" to-layer="139" to-port="0"/>
		<edge from-layer="137" from-port="2" to-layer="152" to-port="0"/>
		<edge from-layer="138" from-port="0" to-layer="139" to-port="1"/>
		<edge from-layer="139" from-port="2" to-layer="141" to-port="0"/>
		<edge from-layer="140" from-port="0" to-layer="141" to-port="1"/>
		<edge from-layer="141" from-port="2" to-layer="142" to-port="0"/>
		<edge from-layer="142" from-port="1" to-layer="144" to-port="0"/>
		<edge from-layer="143" from-port="0" to-layer="144" to-port="1"/>
		<edge from-layer="144" from-port="2" to-layer="146" to-port="0"/>
		<edge from-layer="145" from-port="0" to-layer="146" to-port="1"/>
		<edge from-layer="146" from-port="2" to-layer="147" to-port="0"/>
		<edge from-layer="147" from-port="1" to-layer="149" to-port="0"/>
		<edge from-layer="148" from-port="0" to-layer="149" to-port="1"/>
		<edge from-layer="149" from-port="2" to-layer="151" to-port="0"/>
		<edge from-layer="150" from-port="0" to-layer="151" to-port="1"/>
		<edge from-layer="151" from-port="2" to-layer="152" to-port="1"/>
		<edge from-layer="152" from-port="2" to-layer="154" to-port="0"/>
		<edge from-layer="153" from-port="0" to-layer="154" to-port="1"/>
		<edge from-layer="154" from-port="2" to-layer="156" to-port="0"/>
		<edge from-layer="155" from-port="0" to-layer="156" to-port="1"/>
		<edge from-layer="156" from-port="2" to-layer="157" to-port="0"/>
		<edge from-layer="157" from-port="1" to-layer="159" to-port="0"/>
		<edge from-layer="158" from-port="0" to-layer="159" to-port="1"/>
		<edge from-layer="159" from-port="2" to-layer="161" to-port="0"/>
		<edge from-layer="160" from-port="0" to-layer="161" to-port="1"/>
		<edge from-layer="161" from-port="2" to-layer="162" to-port="0"/>
		<edge from-layer="162" from-port="1" to-layer="164" to-port="0"/>
		<edge from-layer="163" from-port="0" to-layer="164" to-port="1"/>
		<edge from-layer="164" from-port="2" to-layer="166" to-port="0"/>
		<edge from-layer="165" from-port="0" to-layer="166" to-port="1"/>
		<edge from-layer="166" from-port="2" to-layer="168" to-port="0"/>
		<edge from-layer="166" from-port="2" to-layer="181" to-port="0"/>
		<edge from-layer="167" from-port="0" to-layer="168" to-port="1"/>
		<edge from-layer="168" from-port="2" to-layer="170" to-port="0"/>
		<edge from-layer="169" from-port="0" to-layer="170" to-port="1"/>
		<edge from-layer="170" from-port="2" to-layer="171" to-port="0"/>
		<edge from-layer="171" from-port="1" to-layer="173" to-port="0"/>
		<edge from-layer="172" from-port="0" to-layer="173" to-port="1"/>
		<edge from-layer="173" from-port="2" to-layer="175" to-port="0"/>
		<edge from-layer="174" from-port="0" to-layer="175" to-port="1"/>
		<edge from-layer="175" from-port="2" to-layer="176" to-port="0"/>
		<edge from-layer="176" from-port="1" to-layer="178" to-port="0"/>
		<edge from-layer="177" from-port="0" to-layer="178" to-port="1"/>
		<edge from-layer="178" from-port="2" to-layer="180" to-port="0"/>
		<edge from-layer="179" from-port="0" to-layer="180" to-port="1"/>
		<edge from-layer="180" from-port="2" to-layer="181" to-port="1"/>
		<edge from-layer="181" from-port="2" to-layer="196" to-port="0"/>
		<edge from-layer="181" from-port="2" to-layer="183" to-port="0"/>
		<edge from-layer="182" from-port="0" to-layer="183" to-port="1"/>
		<edge from-layer="183" from-port="2" to-layer="185" to-port="0"/>
		<edge from-layer="184" from-port="0" to-layer="185" to-port="1"/>
		<edge from-layer="185" from-port="2" to-layer="186" to-port="0"/>
		<edge from-layer="186" from-port="1" to-layer="188" to-port="0"/>
		<edge from-layer="187" from-port="0" to-layer="188" to-port="1"/>
		<edge from-layer="188" from-port="2" to-layer="190" to-port="0"/>
		<edge from-layer="189" from-port="0" to-layer="190" to-port="1"/>
		<edge from-layer="190" from-port="2" to-layer="191" to-port="0"/>
		<edge from-layer="191" from-port="1" to-layer="193" to-port="0"/>
		<edge from-layer="192" from-port="0" to-layer="193" to-port="1"/>
		<edge from-layer="193" from-port="2" to-layer="195" to-port="0"/>
		<edge from-layer="194" from-port="0" to-layer="195" to-port="1"/>
		<edge from-layer="195" from-port="2" to-layer="196" to-port="1"/>
		<edge from-layer="196" from-port="2" to-layer="198" to-port="0"/>
		<edge from-layer="197" from-port="0" to-layer="198" to-port="1"/>
		<edge from-layer="198" from-port="2" to-layer="200" to-port="0"/>
		<edge from-layer="199" from-port="0" to-layer="200" to-port="1"/>
		<edge from-layer="200" from-port="2" to-layer="201" to-port="0"/>
		<edge from-layer="201" from-port="1" to-layer="203" to-port="0"/>
		<edge from-layer="201" from-port="1" to-layer="331" to-port="0"/>
		<edge from-layer="201" from-port="1" to-layer="401" to-port="0"/>
		<edge from-layer="201" from-port="1" to-layer="221" to-port="0"/>
		<edge from-layer="202" from-port="0" to-layer="203" to-port="1"/>
		<edge from-layer="203" from-port="2" to-layer="205" to-port="0"/>
		<edge from-layer="204" from-port="0" to-layer="205" to-port="1"/>
		<edge from-layer="205" from-port="2" to-layer="206" to-port="0"/>
		<edge from-layer="206" from-port="1" to-layer="208" to-port="0"/>
		<edge from-layer="207" from-port="0" to-layer="208" to-port="1"/>
		<edge from-layer="208" from-port="2" to-layer="210" to-port="0"/>
		<edge from-layer="209" from-port="0" to-layer="210" to-port="1"/>
		<edge from-layer="210" from-port="2" to-layer="212" to-port="0"/>
		<edge from-layer="210" from-port="2" to-layer="213" to-port="0"/>
		<edge from-layer="211" from-port="0" to-layer="212" to-port="1"/>
		<edge from-layer="212" from-port="2" to-layer="219" to-port="0"/>
		<edge from-layer="213" from-port="1" to-layer="216" to-port="0"/>
		<edge from-layer="214" from-port="0" to-layer="216" to-port="1"/>
		<edge from-layer="215" from-port="0" to-layer="216" to-port="2"/>
		<edge from-layer="216" from-port="3" to-layer="218" to-port="0"/>
		<edge from-layer="217" from-port="0" to-layer="218" to-port="1"/>
		<edge from-layer="218" from-port="2" to-layer="219" to-port="1"/>
		<edge from-layer="219" from-port="2" to-layer="329" to-port="0"/>
		<edge from-layer="220" from-port="0" to-layer="221" to-port="1"/>
		<edge from-layer="221" from-port="2" to-layer="223" to-port="0"/>
		<edge from-layer="222" from-port="0" to-layer="223" to-port="1"/>
		<edge from-layer="223" from-port="2" to-layer="224" to-port="0"/>
		<edge from-layer="224" from-port="1" to-layer="226" to-port="0"/>
		<edge from-layer="225" from-port="0" to-layer="226" to-port="1"/>
		<edge from-layer="226" from-port="2" to-layer="228" to-port="0"/>
		<edge from-layer="227" from-port="0" to-layer="228" to-port="1"/>
		<edge from-layer="228" from-port="2" to-layer="230" to-port="0"/>
		<edge from-layer="228" from-port="2" to-layer="243" to-port="0"/>
		<edge from-layer="229" from-port="0" to-layer="230" to-port="1"/>
		<edge from-layer="230" from-port="2" to-layer="232" to-port="0"/>
		<edge from-layer="231" from-port="0" to-layer="232" to-port="1"/>
		<edge from-layer="232" from-port="2" to-layer="233" to-port="0"/>
		<edge from-layer="233" from-port="1" to-layer="235" to-port="0"/>
		<edge from-layer="234" from-port="0" to-layer="235" to-port="1"/>
		<edge from-layer="235" from-port="2" to-layer="237" to-port="0"/>
		<edge from-layer="236" from-port="0" to-layer="237" to-port="1"/>
		<edge from-layer="237" from-port="2" to-layer="238" to-port="0"/>
		<edge from-layer="238" from-port="1" to-layer="240" to-port="0"/>
		<edge from-layer="239" from-port="0" to-layer="240" to-port="1"/>
		<edge from-layer="240" from-port="2" to-layer="242" to-port="0"/>
		<edge from-layer="241" from-port="0" to-layer="242" to-port="1"/>
		<edge from-layer="242" from-port="2" to-layer="243" to-port="1"/>
		<edge from-layer="243" from-port="2" to-layer="258" to-port="0"/>
		<edge from-layer="243" from-port="2" to-layer="245" to-port="0"/>
		<edge from-layer="244" from-port="0" to-layer="245" to-port="1"/>
		<edge from-layer="245" from-port="2" to-layer="247" to-port="0"/>
		<edge from-layer="246" from-port="0" to-layer="247" to-port="1"/>
		<edge from-layer="247" from-port="2" to-layer="248" to-port="0"/>
		<edge from-layer="248" from-port="1" to-layer="250" to-port="0"/>
		<edge from-layer="249" from-port="0" to-layer="250" to-port="1"/>
		<edge from-layer="250" from-port="2" to-layer="252" to-port="0"/>
		<edge from-layer="251" from-port="0" to-layer="252" to-port="1"/>
		<edge from-layer="252" from-port="2" to-layer="253" to-port="0"/>
		<edge from-layer="253" from-port="1" to-layer="255" to-port="0"/>
		<edge from-layer="254" from-port="0" to-layer="255" to-port="1"/>
		<edge from-layer="255" from-port="2" to-layer="257" to-port="0"/>
		<edge from-layer="256" from-port="0" to-layer="257" to-port="1"/>
		<edge from-layer="257" from-port="2" to-layer="258" to-port="1"/>
		<edge from-layer="258" from-port="2" to-layer="260" to-port="0"/>
		<edge from-layer="259" from-port="0" to-layer="260" to-port="1"/>
		<edge from-layer="260" from-port="2" to-layer="262" to-port="0"/>
		<edge from-layer="261" from-port="0" to-layer="262" to-port="1"/>
		<edge from-layer="262" from-port="2" to-layer="263" to-port="0"/>
		<edge from-layer="263" from-port="1" to-layer="265" to-port="0"/>
		<edge from-layer="264" from-port="0" to-layer="265" to-port="1"/>
		<edge from-layer="265" from-port="2" to-layer="267" to-port="0"/>
		<edge from-layer="266" from-port="0" to-layer="267" to-port="1"/>
		<edge from-layer="267" from-port="2" to-layer="268" to-port="0"/>
		<edge from-layer="268" from-port="1" to-layer="270" to-port="0"/>
		<edge from-layer="269" from-port="0" to-layer="270" to-port="1"/>
		<edge from-layer="270" from-port="2" to-layer="272" to-port="0"/>
		<edge from-layer="271" from-port="0" to-layer="272" to-port="1"/>
		<edge from-layer="272" from-port="2" to-layer="274" to-port="0"/>
		<edge from-layer="273" from-port="0" to-layer="274" to-port="1"/>
		<edge from-layer="274" from-port="2" to-layer="276" to-port="0"/>
		<edge from-layer="275" from-port="0" to-layer="276" to-port="1"/>
		<edge from-layer="276" from-port="2" to-layer="277" to-port="0"/>
		<edge from-layer="277" from-port="1" to-layer="414" to-port="0"/>
		<edge from-layer="277" from-port="1" to-layer="349" to-port="0"/>
		<edge from-layer="277" from-port="1" to-layer="297" to-port="0"/>
		<edge from-layer="277" from-port="1" to-layer="279" to-port="0"/>
		<edge from-layer="278" from-port="0" to-layer="279" to-port="1"/>
		<edge from-layer="279" from-port="2" to-layer="281" to-port="0"/>
		<edge from-layer="280" from-port="0" to-layer="281" to-port="1"/>
		<edge from-layer="281" from-port="2" to-layer="282" to-port="0"/>
		<edge from-layer="282" from-port="1" to-layer="284" to-port="0"/>
		<edge from-layer="283" from-port="0" to-layer="284" to-port="1"/>
		<edge from-layer="284" from-port="2" to-layer="286" to-port="0"/>
		<edge from-layer="285" from-port="0" to-layer="286" to-port="1"/>
		<edge from-layer="286" from-port="2" to-layer="289" to-port="0"/>
		<edge from-layer="286" from-port="2" to-layer="288" to-port="0"/>
		<edge from-layer="287" from-port="0" to-layer="288" to-port="1"/>
		<edge from-layer="288" from-port="2" to-layer="295" to-port="0"/>
		<edge from-layer="289" from-port="1" to-layer="292" to-port="0"/>
		<edge from-layer="290" from-port="0" to-layer="292" to-port="1"/>
		<edge from-layer="291" from-port="0" to-layer="292" to-port="2"/>
		<edge from-layer="292" from-port="3" to-layer="294" to-port="0"/>
		<edge from-layer="293" from-port="0" to-layer="294" to-port="1"/>
		<edge from-layer="294" from-port="2" to-layer="295" to-port="1"/>
		<edge from-layer="295" from-port="2" to-layer="329" to-port="1"/>
		<edge from-layer="296" from-port="0" to-layer="297" to-port="1"/>
		<edge from-layer="297" from-port="2" to-layer="299" to-port="0"/>
		<edge from-layer="298" from-port="0" to-layer="299" to-port="1"/>
		<edge from-layer="299" from-port="2" to-layer="300" to-port="0"/>
		<edge from-layer="300" from-port="1" to-layer="302" to-port="0"/>
		<edge from-layer="301" from-port="0" to-layer="302" to-port="1"/>
		<edge from-layer="302" from-port="2" to-layer="304" to-port="0"/>
		<edge from-layer="303" from-port="0" to-layer="304" to-port="1"/>
		<edge from-layer="304" from-port="2" to-layer="305" to-port="0"/>
		<edge from-layer="305" from-port="1" to-layer="307" to-port="0"/>
		<edge from-layer="306" from-port="0" to-layer="307" to-port="1"/>
		<edge from-layer="307" from-port="2" to-layer="309" to-port="0"/>
		<edge from-layer="308" from-port="0" to-layer="309" to-port="1"/>
		<edge from-layer="309" from-port="2" to-layer="310" to-port="0"/>
		<edge from-layer="310" from-port="1" to-layer="367" to-port="0"/>
		<edge from-layer="310" from-port="1" to-layer="426" to-port="0"/>
		<edge from-layer="310" from-port="1" to-layer="312" to-port="0"/>
		<edge from-layer="311" from-port="0" to-layer="312" to-port="1"/>
		<edge from-layer="312" from-port="2" to-layer="314" to-port="0"/>
		<edge from-layer="313" from-port="0" to-layer="314" to-port="1"/>
		<edge from-layer="314" from-port="2" to-layer="315" to-port="0"/>
		<edge from-layer="315" from-port="1" to-layer="317" to-port="0"/>
		<edge from-layer="316" from-port="0" to-layer="317" to-port="1"/>
		<edge from-layer="317" from-port="2" to-layer="319" to-port="0"/>
		<edge from-layer="318" from-port="0" to-layer="319" to-port="1"/>
		<edge from-layer="319" from-port="2" to-layer="322" to-port="0"/>
		<edge from-layer="319" from-port="2" to-layer="321" to-port="0"/>
		<edge from-layer="320" from-port="0" to-layer="321" to-port="1"/>
		<edge from-layer="321" from-port="2" to-layer="328" to-port="0"/>
		<edge from-layer="322" from-port="1" to-layer="325" to-port="0"/>
		<edge from-layer="323" from-port="0" to-layer="325" to-port="1"/>
		<edge from-layer="324" from-port="0" to-layer="325" to-port="2"/>
		<edge from-layer="325" from-port="3" to-layer="327" to-port="0"/>
		<edge from-layer="326" from-port="0" to-layer="327" to-port="1"/>
		<edge from-layer="327" from-port="2" to-layer="328" to-port="1"/>
		<edge from-layer="328" from-port="2" to-layer="329" to-port="2"/>
		<edge from-layer="329" from-port="3" to-layer="439" to-port="0"/>
		<edge from-layer="330" from-port="0" to-layer="331" to-port="1"/>
		<edge from-layer="331" from-port="2" to-layer="333" to-port="0"/>
		<edge from-layer="332" from-port="0" to-layer="333" to-port="1"/>
		<edge from-layer="333" from-port="2" to-layer="334" to-port="0"/>
		<edge from-layer="334" from-port="1" to-layer="336" to-port="0"/>
		<edge from-layer="335" from-port="0" to-layer="336" to-port="1"/>
		<edge from-layer="336" from-port="2" to-layer="338" to-port="0"/>
		<edge from-layer="337" from-port="0" to-layer="338" to-port="1"/>
		<edge from-layer="338" from-port="2" to-layer="341" to-port="0"/>
		<edge from-layer="338" from-port="2" to-layer="340" to-port="0"/>
		<edge from-layer="339" from-port="0" to-layer="340" to-port="1"/>
		<edge from-layer="340" from-port="2" to-layer="347" to-port="0"/>
		<edge from-layer="341" from-port="1" to-layer="344" to-port="0"/>
		<edge from-layer="342" from-port="0" to-layer="344" to-port="1"/>
		<edge from-layer="343" from-port="0" to-layer="344" to-port="2"/>
		<edge from-layer="344" from-port="3" to-layer="346" to-port="0"/>
		<edge from-layer="345" from-port="0" to-layer="346" to-port="1"/>
		<edge from-layer="346" from-port="2" to-layer="347" to-port="1"/>
		<edge from-layer="347" from-port="2" to-layer="384" to-port="0"/>
		<edge from-layer="348" from-port="0" to-layer="349" to-port="1"/>
		<edge from-layer="349" from-port="2" to-layer="351" to-port="0"/>
		<edge from-layer="350" from-port="0" to-layer="351" to-port="1"/>
		<edge from-layer="351" from-port="2" to-layer="352" to-port="0"/>
		<edge from-layer="352" from-port="1" to-layer="354" to-port="0"/>
		<edge from-layer="353" from-port="0" to-layer="354" to-port="1"/>
		<edge from-layer="354" from-port="2" to-layer="356" to-port="0"/>
		<edge from-layer="355" from-port="0" to-layer="356" to-port="1"/>
		<edge from-layer="356" from-port="2" to-layer="359" to-port="0"/>
		<edge from-layer="356" from-port="2" to-layer="358" to-port="0"/>
		<edge from-layer="357" from-port="0" to-layer="358" to-port="1"/>
		<edge from-layer="358" from-port="2" to-layer="365" to-port="0"/>
		<edge from-layer="359" from-port="1" to-layer="362" to-port="0"/>
		<edge from-layer="360" from-port="0" to-layer="362" to-port="1"/>
		<edge from-layer="361" from-port="0" to-layer="362" to-port="2"/>
		<edge from-layer="362" from-port="3" to-layer="364" to-port="0"/>
		<edge from-layer="363" from-port="0" to-layer="364" to-port="1"/>
		<edge from-layer="364" from-port="2" to-layer="365" to-port="1"/>
		<edge from-layer="365" from-port="2" to-layer="384" to-port="1"/>
		<edge from-layer="366" from-port="0" to-layer="367" to-port="1"/>
		<edge from-layer="367" from-port="2" to-layer="369" to-port="0"/>
		<edge from-layer="368" from-port="0" to-layer="369" to-port="1"/>
		<edge from-layer="369" from-port="2" to-layer="370" to-port="0"/>
		<edge from-layer="370" from-port="1" to-layer="372" to-port="0"/>
		<edge from-layer="371" from-port="0" to-layer="372" to-port="1"/>
		<edge from-layer="372" from-port="2" to-layer="374" to-port="0"/>
		<edge from-layer="373" from-port="0" to-layer="374" to-port="1"/>
		<edge from-layer="374" from-port="2" to-layer="376" to-port="0"/>
		<edge from-layer="374" from-port="2" to-layer="377" to-port="0"/>
		<edge from-layer="375" from-port="0" to-layer="376" to-port="1"/>
		<edge from-layer="376" from-port="2" to-layer="383" to-port="0"/>
		<edge from-layer="377" from-port="1" to-layer="380" to-port="0"/>
		<edge from-layer="378" from-port="0" to-layer="380" to-port="1"/>
		<edge from-layer="379" from-port="0" to-layer="380" to-port="2"/>
		<edge from-layer="380" from-port="3" to-layer="382" to-port="0"/>
		<edge from-layer="381" from-port="0" to-layer="382" to-port="1"/>
		<edge from-layer="382" from-port="2" to-layer="383" to-port="1"/>
		<edge from-layer="383" from-port="2" to-layer="384" to-port="2"/>
		<edge from-layer="384" from-port="3" to-layer="386" to-port="0"/>
		<edge from-layer="385" from-port="0" to-layer="386" to-port="1"/>
		<edge from-layer="386" from-port="2" to-layer="387" to-port="0"/>
		<edge from-layer="386" from-port="2" to-layer="396" to-port="0"/>
		<edge from-layer="387" from-port="1" to-layer="391" to-port="0"/>
		<edge from-layer="387" from-port="1" to-layer="398" to-port="1"/>
		<edge from-layer="388" from-port="0" to-layer="391" to-port="1"/>
		<edge from-layer="389" from-port="0" to-layer="391" to-port="2"/>
		<edge from-layer="390" from-port="0" to-layer="391" to-port="3"/>
		<edge from-layer="391" from-port="4" to-layer="393" to-port="0"/>
		<edge from-layer="392" from-port="0" to-layer="393" to-port="1"/>
		<edge from-layer="393" from-port="2" to-layer="395" to-port="0"/>
		<edge from-layer="394" from-port="0" to-layer="395" to-port="1"/>
		<edge from-layer="395" from-port="2" to-layer="396" to-port="1"/>
		<edge from-layer="396" from-port="2" to-layer="397" to-port="0"/>
		<edge from-layer="397" from-port="1" to-layer="398" to-port="0"/>
		<edge from-layer="398" from-port="2" to-layer="400" to-port="0"/>
		<edge from-layer="399" from-port="0" to-layer="400" to-port="1"/>
		<edge from-layer="400" from-port="2" to-layer="439" to-port="1"/>
		<edge from-layer="401" from-port="1" to-layer="405" to-port="0"/>
		<edge from-layer="402" from-port="0" to-layer="405" to-port="1"/>
		<edge from-layer="403" from-port="0" to-layer="405" to-port="2"/>
		<edge from-layer="404" from-port="0" to-layer="405" to-port="3"/>
		<edge from-layer="405" from-port="4" to-layer="411" to-port="0"/>
		<edge from-layer="406" from-port="1" to-layer="434" to-port="0"/>
		<edge from-layer="406" from-port="1" to-layer="422" to-port="0"/>
		<edge from-layer="406" from-port="1" to-layer="410" to-port="0"/>
		<edge from-layer="407" from-port="0" to-layer="410" to-port="1"/>
		<edge from-layer="408" from-port="0" to-layer="410" to-port="2"/>
		<edge from-layer="409" from-port="0" to-layer="410" to-port="3"/>
		<edge from-layer="410" from-port="4" to-layer="411" to-port="1"/>
		<edge from-layer="411" from-port="2" to-layer="413" to-port="0"/>
		<edge from-layer="412" from-port="0" to-layer="413" to-port="1"/>
		<edge from-layer="413" from-port="2" to-layer="438" to-port="0"/>
		<edge from-layer="414" from-port="1" to-layer="418" to-port="0"/>
		<edge from-layer="415" from-port="0" to-layer="418" to-port="1"/>
		<edge from-layer="416" from-port="0" to-layer="418" to-port="2"/>
		<edge from-layer="417" from-port="0" to-layer="418" to-port="3"/>
		<edge from-layer="418" from-port="4" to-layer="423" to-port="0"/>
		<edge from-layer="419" from-port="0" to-layer="422" to-port="1"/>
		<edge from-layer="420" from-port="0" to-layer="422" to-port="2"/>
		<edge from-layer="421" from-port="0" to-layer="422" to-port="3"/>
		<edge from-layer="422" from-port="4" to-layer="423" to-port="1"/>
		<edge from-layer="423" from-port="2" to-layer="425" to-port="0"/>
		<edge from-layer="424" from-port="0" to-layer="425" to-port="1"/>
		<edge from-layer="425" from-port="2" to-layer="438" to-port="1"/>
		<edge from-layer="426" from-port="1" to-layer="430" to-port="0"/>
		<edge from-layer="427" from-port="0" to-layer="430" to-port="1"/>
		<edge from-layer="428" from-port="0" to-layer="430" to-port="2"/>
		<edge from-layer="429" from-port="0" to-layer="430" to-port="3"/>
		<edge from-layer="430" from-port="4" to-layer="435" to-port="0"/>
		<edge from-layer="431" from-port="0" to-layer="434" to-port="1"/>
		<edge from-layer="432" from-port="0" to-layer="434" to-port="2"/>
		<edge from-layer="433" from-port="0" to-layer="434" to-port="3"/>
		<edge from-layer="434" from-port="4" to-layer="435" to-port="1"/>
		<edge from-layer="435" from-port="2" to-layer="437" to-port="0"/>
		<edge from-layer="436" from-port="0" to-layer="437" to-port="1"/>
		<edge from-layer="437" from-port="2" to-layer="438" to-port="2"/>
		<edge from-layer="438" from-port="3" to-layer="439" to-port="2"/>
		<edge from-layer="439" from-port="3" to-layer="440" to-port="0"/>
	</edges>
	<meta_data>
		<MO_version value="2022.1.0-6910-173f328c53d"/>
		<Runtime_version value="2022.1.0-6910-173f328c53d"/>
		<legacy_path value="False"/>
		<cli_parameters>
			<caffe_parser_path value="DIR"/>
			<compress_fp16 value="False"/>
			<data_type value="FP32"/>
			<disable_nhwc_to_nchw value="False"/>
			<disable_omitting_optional value="False"/>
			<disable_resnet_optimization value="False"/>
			<disable_weights_compression value="False"/>
			<enable_concat_optimization value="False"/>
			<enable_flattening_nested_params value="False"/>
			<enable_ssd_gluoncv value="False"/>
			<extensions value="DIR"/>
			<framework value="onnx"/>
			<freeze_placeholder_with_value value="{}"/>
			<generate_deprecated_IR_V7 value="False"/>
			<input value="input.1"/>
			<input_model value="DIR/person-vehicle-bike-detection-crossroad-1016.onnx"/>
			<input_model_is_text value="False"/>
			<input_shape value="[1,3,512,512]"/>
			<k value="DIR/CustomLayersMapping.xml"/>
			<keep_shape_ops value="True"/>
			<layout value="input.1(nchw)"/>
			<layout_values value="{'input.1': {'source_layout': 'nchw', 'target_layout': None, 'is_input': True}}"/>
			<legacy_ir_generation value="False"/>
			<legacy_mxnet_model value="False"/>
			<log_level value="ERROR"/>
			<mean_scale_values value="{'input.1': {'mean': None, 'scale': array([255.])}}"/>
			<mean_values value="()"/>
			<model_name value="person-vehicle-bike-detection-crossroad-1016"/>
			<output_dir value="DIR"/>
			<placeholder_data_types value="{}"/>
			<placeholder_shapes value="{'input.1': (1, 3, 512, 512)}"/>
			<progress value="False"/>
			<remove_memory value="False"/>
			<remove_output_softmax value="False"/>
			<reverse_input_channels value="False"/>
			<save_params_from_nd value="False"/>
			<scale_values value="input.1[255.0]"/>
			<silent value="False"/>
			<source_layout value="()"/>
			<static_shape value="False"/>
			<stream_output value="False"/>
			<target_layout value="()"/>
			<transform value=""/>
			<use_legacy_frontend value="False"/>
			<use_new_frontend value="False"/>
			<unset unset_cli_parameters="batch, counts, disable_fusing, disable_gfusing, finegrain_fusing, input_checkpoint, input_meta_graph, input_proto, input_symbol, mean_file, mean_file_offsets, move_to_preprocess, nd_prefix_name, output, pretrained_model_name, saved_model_dir, saved_model_tags, scale, tensorboard_logdir, tensorflow_custom_layer_libraries, tensorflow_custom_operations_config_update, tensorflow_object_detection_api_pipeline_config, tensorflow_use_custom_operations_config, transformations_config"/>
		</cli_parameters>
	</meta_data>
</net>
